output/models/dnn.pth (torch, 110472 bytes, 15 tensors)

fc1.weight f4 [64, 10]
000000 8a 76 8a bd 1e 7a 62 3c ae ca c6 bd 34 30 1d be
       -0.06760891 0.01382306 -0.09706627 -0.1535042
000010 ae 03 9b 3d cc 03 1a bd 45 f1 9a be e3 55 e9 bd
       0.07569061 -0.037601277 -0.302622 -0.11393335
000020 07 f6 16 3e 90 3b 6f 3d 7a ac 14 3e 9c 74 a0 be
       0.1474229 0.058406413 0.1451892 -0.31338966
000030 7e 16 6b be 81 9b db bd 7d f1 31 3e 7d 40 80 be
       -0.22957799 -0.107230194 0.17377277 -0.250492
000040 0e 10 cc bd d5 a2 b9 3c 07 df 27 be b2 22 02 be
       -0.09964 0.022660652 -0.16393672 -0.12708548
000050 52 1a 54 bd 46 c3 97 3e 1c 2e a4 be 77 59 af be
       -0.051782914 0.2964117 -0.3206643 -0.34247944
000060 55 4e a2 3e 3f 41 c9 bd e8 9a b6 bd 44 b5 1b 3d
       0.31700388 -0.09826898 -0.08916265 0.038014665
000070 f9 bd 73 3e 5b ff e6 be 91 0c 0f bd cb 2d 78 3e
       0.23802938 -0.45116696 -0.034924094 0.24236219
000080 33 ff b1 39 1e 48 0c 3e b4 67 e5 be 46 8a b6 be
       0.0003395021 0.13699386 -0.44805682 -0.3565237
000090 43 d5 a0 3e 7f 3f 27 3b 9d bd ae bc 00 51 65 3e
       0.31412706 0.0025520024 -0.021330649 0.2239418
0000a0 a7 db 0a 3e d0 85 99 bd 46 f8 99 be 92 63 09 be
       0.13560353 -0.07496226 -0.3007223 -0.1341689
0000b0 e3 bb ca bd 9e 44 4d 3e 3f f4 90 be 89 e2 10 3e
       -0.09899118 0.20045707 -0.28311345 0.14148916
0000c0 f2 ee 91 be 7c aa f3 3c 86 4d 8b 3e 12 e0 be bd
       -0.28502613 0.02974438 0.27207583 -0.09320082
0000d0 ab 10 21 3d 85 39 8f bb c9 55 01 3f 25 d8 8b 3d
       0.039322536 -0.0043708705 0.5052152 0.06828336
0000e0 bc 1a a9 be 82 89 34 3c 0c 1c 0a 3e e5 13 b4 be
       -0.3302821 0.011019113 0.13487262 -0.35171428
0000f0 93 e5 5a 3e ae 0a d9 3d 6e 16 77 be 90 44 94 be
       0.21376638 0.1059774 -0.2412965 -0.2895856
000100 26 24 04 3e 6b a7 7e be 8a 67 42 be 0b bf ae 3d
       0.12904415 -0.24868552 -0.1898481 0.08532532
000110 fc 20 0d 3e 24 c2 f7 bd 2a 03 38 3e 54 ab e0 3c
       0.13782114 -0.12097576 0.17969957 0.027425446
000120 f7 85 4e be 4c 1c 87 3e e1 c9 b6 3d 1c f1 40 be
       -0.20168291 0.26388776 0.08925224 -0.18841976
000130 b0 c9 92 be 19 ee 8e 3e 45 bf a6 3d cb ef 09 be
       -0.286695 0.2791603 0.081419505 -0.1347038
000140 a1 6b 18 be 9f 27 06 be 66 3d 70 bc 8e af 51 3e
       -0.14884807 -0.13101052 -0.014663076 0.20477125
000150 96 21 cc bd c4 64 9e be 62 f7 4a 3c 04 cf 9e 3e
       -0.099673435 -0.30936253 0.012388082 0.31017315
000160 e2 13 31 3e 0b 88 88 bd b1 54 96 3d 7a e9 da 3d
       0.17292741 -0.06666573 0.07340372 0.10689063
000170 ab 66 d2 3d af cd 21 be d1 c6 40 be 32 f9 58 3e
       0.102734886 -0.15801118 -0.18825842 0.2118881
000180 03 89 95 be ba 6c a2 be 72 1f c3 3c 5a 88 b1 3e
       -0.29206094 -0.31723577 0.023818705 0.3467434
000190 84 fa 5b 3e 64 75 94 be b9 d4 07 be 43 ba 4e be
       0.21482283 -0.28995812 -0.13264741 -0.2018824
0001a0 f1 73 e0 bd 78 ea dc bd c6 32 9c be 31 d9 86 3e
       -0.10959614 -0.10786909 -0.30507487 0.2633758
0001b0 a3 25 a9 3e b5 1b 34 3e 59 9f ad bd d9 57 86 be
       0.33036527 0.17588694 -0.08477659 -0.26238897
0001c0 fa 8a 81 be 7b 7a a0 bd 8f fe 8b be 9d 76 98 3e
       -0.25301343 -0.07835861 -0.2734265 0.29777995
0001d0 05 0f fe bd a7 89 44 3e 9a aa 85 3e 9e fd c3 3d
       -0.124052085 0.19193135 0.2610672 0.09569858
0001e0 41 c2 8c 3e 33 49 05 3c 6a a7 ed 3d e9 f1 e8 3d
       0.27491954 0.008135128 0.11604197 0.11374266
0001f0 4b e2 fd 3e f8 49 3e 3d 11 ff 0f bc cd a6 89 3e
       0.4958671 0.04645726 -0.00878884 0.2688507
000200 78 4c fb 3d 3e 94 12 bf f9 38 20 be bc 20 8b be
       0.12270445 -0.5725745 -0.15646733 -0.27173412
000210 50 61 cd bd ad 33 96 3e 68 90 19 3e 51 04 90 be
       -0.100283265 0.293363 0.14996493 -0.28128293
000220 4e f2 77 bd 8f 2f 5f 3e 13 d8 e0 3d c8 13 3f be
       -0.060533814 0.21795486 0.10978713 -0.1865989
000230 73 6f a1 bd d6 32 fa bd 96 e0 57 3e d7 f3 9f 3e
       -0.078825854 -0.122167274 0.21081766 0.31240723
000240 a5 59 f9 be b1 50 c1 3d 38 11 5d 3e 68 fb c2 3c
       -0.48701206 0.09439219 0.215886 0.02380152
000250 8f 3a ac 3d 8c dc cb 3e 63 a9 aa bd d4 01 ce 3c
       0.08409607 0.398167 -0.08333089 0.025147356
000260 0b 87 2c be 11 df 3b bd 85 1a 81 be ae c4 09 3e
       -0.1684839 -0.04586703 -0.25215545 0.13453934
000270 0d e3 5f be 86 13 c3 bc fc 84 81 3d 8e 9d 20 be
       -0.21863957 -0.02381302 0.06324193 -0.15685102
000280 70 7d f7 3d 13 06 1a 3e ab 82 41 be aa 9b e6 3e
       0.12084472 0.1504138 -0.18897502 0.45040637
000290 57 40 70 be 22 b3 b5 bd 9b ca 38 be e2 bb 0a 3e
       -0.23462044 -0.088720575 -0.18046038 0.13548234
0002a0 b2 49 db 3c 24 2a 29 3f 1b 6f d2 bd 86 31 f7 3c
       0.02676854 0.66079926 -0.10275098 0.030174982
0002b0 0b 20 c8 3d d8 ec 98 be 48 61 2c be 1c 05 7b 3e
       0.09771737 -0.29868197 -0.16833985 0.24513668
0002c0 0f 2b 34 3e 0b 25 61 be 5e 55 c9 3d b7 1a 24 3e
       0.1759455 -0.21986787 0.098307356 0.16025816
0002d0 f8 f0 07 bb 12 a3 96 3d 4b 7d 50 3e 37 6f 2f 3d
       -0.0020742994 0.07355322 0.20360295 0.042830672
0002e0 40 5f fe be 41 f5 9a 3e 76 c3 70 be 1d 6a 2f 3d
       -0.49682045 0.3026524 -0.23512062 0.042825807
0002f0 71 de 65 be 8d 7c ec 3e 4c 90 d2 bd aa 00 5c 3e
       -0.22448136 0.46188775 -0.10281429 0.21484628
000300 02 05 ab 3d eb 16 4e bd 04 f0 e0 3d 02 94 b4 be
       0.083505645 -0.050314825 0.10983279 -0.3526917
000310 83 21 7b 3e d0 ec 61 be 22 cf 74 3e 0f 20 47 3e
       0.24524502 -0.22062993 0.2390714 0.19445823
000320 15 55 66 3e fc 26 89 3d f9 c5 4f be 47 7b c5 3d
       0.22493394 0.06696889 -0.20290364 0.09642654
000330 e8 41 4d be a1 55 83 be 66 5d 43 bd 4e f0 4e 3e
       -0.20044672 -0.25651267 -0.047696494 0.20208856
000340 6b b9 f6 3d 4f 1a 7e be ec 24 81 3e 5c 2b fb 3d
       0.120470844 -0.24814723 0.25223482 0.122641295
000350 6b 61 39 3e 10 af a1 be 09 00 22 3e 15 c9 88 3e
       0.18103568 -0.31578875 0.15820326 0.26715913
000360 e9 2f c3 bd ef 32 dc bd 1f 15 92 bc 56 cd b7 be
       -0.095306225 -0.10751902 -0.017832337 -0.35898846
000370 1f c3 c6 3e 4a 6e d7 3d a8 5f 45 3d b7 08 60 3d
       0.3882074 0.10519083 0.048186928 0.05469581
000380 99 57 d4 3e 7a 7e 08 be 86 ec 1b be e6 dc 0e be
       0.41473082 -0.13329497 -0.15226945 -0.13951454
000390 94 e5 34 3d 90 0c 9c be 6a 73 0b 3e e0 1e 41 be
       0.044164255 -0.30478334 0.13618246 -0.18859434
0003a0 47 39 a3 3d cb c2 35 be f5 f3 d0 be b5 44 35 be
       0.07969909 -0.17750089 -0.40811124 -0.17701991
0003b0 da ef 1c be 85 f0 56 3d d6 24 6c bd be a1 db bd
       -0.15325871 0.05247547 -0.057652317 -0.10724209
0003c0 41 11 78 3e 4c 28 7a 3c 9f a0 4d bd 84 bb 1d be
       0.24225332 0.015268397 -0.05020201 -0.15403563
0003d0 af 35 0a 3e 41 49 68 3e 3d 95 de be f2 03 24 be
       0.13497041 0.22684194 -0.43473235 -0.1601713
0003e0 95 9d da 3d 46 aa bd be 80 72 42 3e ab 55 a0 bd
       0.10674588 -0.3704397 0.18988991 -0.0782884
0003f0 bb cf 92 3b 53 e7 ca bc 33 ae 75 be 86 42 85 be
       0.00448033 -0.024768507 -0.23992233 -0.26027316

fc1.bias f4 [64]
000000 42 d6 6f be 38 b1 5a 3e 7e b6 95 3d d6 1c 82 3e
       -0.23421577 0.21356666 0.07310198 0.25412625
000010 a7 e7 48 be 38 f2 80 3e ce 4f 41 be b4 45 04 be
       -0.19619618 0.25184798 -0.188781 -0.12917215
000020 fa 73 19 be 43 13 8e 3e 82 b1 b1 3d 6c ce 86 3d
       -0.14985648 0.2774907 0.08676435 0.065823406
000030 ca 7f 51 3d 4d 28 29 3e 90 89 4e bd d7 bf 92 3e
       0.05114726 0.1651928 -0.05042416 0.28661987
000040 67 fa 0e 3e e0 15 cf bd 58 16 63 3e 5f 0f 9e be
       0.13962708 -0.10111594 0.22176492 -0.30871102
000050 26 fd e5 bd cb c1 3f bd 94 0b ad 3e a9 76 90 3e
       -0.11229925 -0.046815675 0.33797896 0.2821553
000060 51 d6 ae 3e 46 e6 6e 3e 53 ad 03 be 33 89 ab 3e
       0.34147885 0.2333003 -0.12859087 0.33503112
000070 09 ca 83 be 3e f6 54 be db a9 6e 3e 47 84 ad 3c
       -0.25740078 -0.20797059 0.23306982 0.021181239
000080 8d d9 88 bc b3 4f 83 be da 48 b2 bc 45 82 9e be
       -0.016705299 -0.25646743 -0.021763254 -0.30958763
000090 08 2f 8d 3e 56 36 df bd 90 5d 01 3d 7d 21 aa 3e
       0.27574944 -0.10899036 0.03158337 0.33228675
0000a0 1d d3 59 3e ea 58 ba bd 92 78 23 3e 5e b2 09 3e
       0.2127194 -0.0909899 0.15963963 0.13446948
0000b0 a9 fd 3b be 68 23 e2 3d f9 6b 1a be b7 85 f2 3d
       -0.18358482 0.110419095 -0.15080251 0.1184191
0000c0 50 f4 90 be 54 3c 76 bd 23 ac 67 bd 4e 32 b0 bd
       -0.28311396 -0.060116127 -0.056560647 -0.08603345
0000d0 eb 71 6e 3e 21 ab d9 3d 30 cd 60 be 13 36 84 be
       0.23285644 0.106283434 -0.21953273 -0.25822505
0000e0 42 35 54 be 44 b7 8b be a9 96 39 be 96 2c 07 3e
       -0.20723441 -0.27288258 -0.18123879 0.13200602
0000f0 26 8b 33 3e 1b e3 ca 3d dc c7 af 3e 48 37 9f be
       0.1753355 0.09906598 0.34332168 -0.31096864

fc2.weight f4 [128, 64]
000000 00 85 06 3d 06 e0 8f bd 44 2a 66 bd 13 c8 a5 3d
       0.032841682 -0.07025151 -0.05619265 0.08094802
000010 da 33 4a 3d 26 bc ca 3d 57 da a7 bd ca 69 e5 bc
       0.049365856 0.09899168 -0.08195942 -0.028004546
000020 6e a7 05 bd e3 e3 9f 3d 52 0e 5d bc ad 7c 68 bd
       -0.032630377 0.07807138 -0.013492184 -0.056759525
000030 d5 a9 a3 3d de 7b ed 3d ab 2c 30 3d fe cd b5 bd
       0.07991377 0.115958914 0.04301135 -0.088771805
000040 f5 02 42 bd 82 30 0d be 34 61 cd bd 5d 3d 03 bb
       -0.0473661 -0.13788036 -0.10028306 -0.002002559
000050 c2 41 48 bd aa 56 3f 3d 7f f7 46 3c 2f 5f b0 3d
       -0.048890837 0.04671351 0.012143969 0.08611905
000060 21 19 4c 3d 81 fe 8e bd 2b 1b a7 bd e4 1a 12 3d
       0.049828652 -0.069821365 -0.08159479 0.035670176
000070 0a 06 8f bd e4 7f a1 ba 1a 13 0a 3d 38 88 f3 3c
       -0.06983574 -0.001232144 0.033709623 0.02972804
000080 f6 30 0a 3d 4e d4 f8 3d 0b e2 45 bd ba 88 85 3d
       0.0337381 0.12149869 -0.048311274 0.06520219
000090 7e 16 f2 bb 34 4d 40 3d a8 36 e6 bd fd d2 99 3d
       -0.007387935 0.046948627 -0.112408936 0.07510946
0000a0 24 99 ba bd 12 de 73 bd 4e a1 81 3d 75 e1 d8 3d
       -0.091112405 -0.059537955 0.063295946 0.105898775
0000b0 d0 8b 88 3d 60 a4 d5 bd e9 70 03 3e 8c 88 05 3b
       0.06667292 -0.10431743 0.1283604 0.0020375578
0000c0 8a 52 dd bd a5 8d 4f 3d 29 6d 2b bd d7 d6 0b be
       -0.10806759 0.050672192 -0.04185215 -0.13656174
0000d0 10 28 c6 bd 02 9c 82 bc 9f ac 10 3d b8 42 f9 bd
       -0.0967561 -0.015943531 0.035320874 -0.12170929
0000e0 8f 37 20 3d de cd 8f bc fe 96 2d bd 67 51 cb bd
       0.039115485 -0.01755422 -0.042380325 -0.09927636
0000f0 fd 72 c5 3c 1f f3 d0 3d 95 11 3a bd 40 97 a6 bd
       0.024102682 0.10202622 -0.045426924 -0.081343174
000100 85 e8 aa bd 04 46 00 be 4a a5 7e bd 81 3b bf 3d
       -0.08345131 -0.12526709 -0.06216935 0.09337521
000110 c2 7c 8c 3d 0b de 1a be 06 6a bb 3c 32 bd 73 bd
       0.06859733 -0.15123765 0.022877704 -0.059506603
000120 7f bf 9c bc 9b 6b 5d bd 58 46 0f 3d bd 0f ae 3c
       -0.019134281 -0.0540577 0.034979194 0.021247739
000130 7b 62 a4 bd ec fe d7 3b 21 5e 51 3d ac 6d f9 3d
       -0.08026596 0.0065916684 0.05111516 0.121791214
000140 94 12 37 bd a1 86 32 3d 98 f0 8b 3d 92 2a 97 bd
       -0.04469545 0.043585423 0.06832999 -0.073811665
000150 dd 7f 15 3d 27 ca 51 bd 02 71 e7 3c 2f 55 7d 3d
       0.036498893 -0.051218178 0.028252129 0.061848816
000160 99 e0 97 3d b0 ee 30 3d cb b2 ef bd ea 43 ac bd
       0.074158855 0.04319638 -0.11704024 -0.08411391
000170 df 73 e5 3c 7e 8a 84 bc 9d 77 c5 bd 46 b7 1e be
       0.028009353 -0.01617932 -0.09641955 -0.15499601
000180 1c 2b 94 3d a5 1a f7 bd 76 9a 52 bd 03 5b 5e 3d
       0.07234785 -0.12065629 -0.051416837 0.054286014
000190 8c 36 20 3c ad 28 fb 3d 06 2b d3 bd 85 a9 6f 3c
       0.00977863 0.12263618 -0.103109404 0.014627819
0001a0 ad f5 cc bd ec 86 bc 3d eb 08 04 3d 79 9d a9 3d
       -0.100077964 0.09205422 0.032235067 0.08281989
0001b0 d1 de 27 3d 46 bf 4d 3d 14 be 12 be b1 80 44 3d
       0.04098398 0.05023124 -0.14330322 0.047974292
0001c0 c6 4b 34 bd 1b 49 0a be ae 3f c9 bd 75 55 9d bd
       -0.044017576 -0.1350445 -0.09826599 -0.07682315
0001d0 12 3f b8 3d 34 d9 c7 bd 8e 8d 3f 3d 94 11 da 3b
       0.08996405 -0.09758225 0.046765856 0.0066549275
0001e0 86 e5 ab 3d 39 52 3b bd 0d 3d bc bd 9f 5a 6c bd
       0.083933875 -0.04573271 -0.09191332 -0.05770361
0001f0 2f 59 79 3c 74 21 f8 bc 43 74 f8 3d 64 4c 42 ba
       0.015219017 -0.03028939 0.1213155 -0.0007411896
000200 f0 21 03 bd 22 a8 be 3d 53 cb ea bc 60 e9 9a 3d
       -0.032014787 0.093094125 -0.028661406 0.07564044
000210 8d f0 25 bd 81 fe a0 bc d8 1a 46 3d 42 01 0c be
       -0.04051261 -0.019652607 0.048365444 -0.13672355
000220 5e 05 01 be 7e fa c9 ba 31 a5 05 be 1a 43 fe bc
       -0.12599704 -0.0015409735 -0.13051297 -0.031037856
000230 a9 41 be 3c 95 c6 8e bd e8 07 42 3d 2d 25 79 bc
       0.023224669 -0.0697147 0.04737082 -0.015206617
000240 13 ff a6 3b 77 d7 13 3c 46 ed 3e 3d bd 3c 2f 3d
       0.005096325 0.009023539 0.046613 0.042782534
000250 e6 d3 9a 3d e8 0c b2 bd 56 0d b4 bc 9d 61 8a 3c
       0.07559948 -0.08693868 -0.021979015 0.016892249
000260 33 09 00 3e 26 57 b4 3d bc c4 6a 3d 6c 68 a9 bd
       0.12503509 0.08805685 0.057316527 -0.0827187
000270 69 1a a4 3c 58 81 eb bd a5 b5 c2 bd e4 3c 08 bd
       0.020032125 -0.1149928 -0.09507302 -0.033261195
000280 5a 7a cd 3d e4 a4 3e bc a8 bd 2f 3c 35 f8 2f 3e
       0.10033102 -0.011635993 0.01072637 0.17184527
000290 3e dc de bd d9 62 8b 3d 65 de bd bd c8 3e b6 3d
       -0.108818516 0.06805963 -0.09270934 0.08898693
0002a0 0e 6f 1c 3d be f3 ad bd e6 b8 99 bd 06 86 bf 3d
       0.038191848 -0.08493756 -0.0750597 0.09351735
0002b0 ab 80 68 3d 48 e9 4c bc b2 9b f7 3c d0 ec bd bd
       0.056763332 -0.01250679 0.030225608 -0.09273684
0002c0 45 45 12 3d b1 33 6f 3d 53 0c 89 3d e5 77 89 3d
       0.03571059 0.058398906 0.06691804 0.06712321
0002d0 7c 31 b3 3c 7b 55 e8 bd e6 4a 7c 3d b3 e1 6f 3d
       0.021874182 -0.11344429 0.061594866 0.058564853
0002e0 89 f0 5d bd 4f 44 04 3e 8e 8e b5 3c bb 35 5e 3d
       -0.05418447 0.12916683 0.022162702 0.05425046
0002f0 1c 88 d9 bd 20 eb 7f 3c 46 b7 e0 3d 21 b1 28 3d
       -0.10621664 0.015620023 0.10972457 0.04118455
000300 92 a9 d0 bc 91 a1 6b bd 58 d6 a3 3d 4b 3e 1b 3d
       -0.025471482 -0.05752713 0.07999867 0.037901204
000310 67 18 30 3d f8 0e 80 bd ba 80 40 bd 86 21 03 3d
       0.042992022 -0.06252855 -0.046997763 0.032014392
000320 1b 0c 04 3e 4e 1e 1d bd cf 45 be bd b3 fe 15 bd
       0.12895243 -0.03835898 -0.09290659 -0.036619853
000330 15 dc bd 3d 18 3d 42 bd ae 19 c8 3d 27 5e 86 3a
       0.09270493 -0.047421545 0.09770523 0.0010251448
000340 e9 31 43 3d bc ce 5b bd 2b 6a 97 bd c2 05 9d bd
       0.04765502 -0.053663954 -0.07393297 -0.07667114
000350 32 88 ee bd d6 a4 c6 3d 15 63 02 3e 3b 48 a0 bd
       -0.11647071 0.09699409 0.1273311 -0.07826277
000360 de 32 7d 3d ca 9c 68 3c 11 2a ba bd be 65 b4 3b
       0.06181609 0.014197538 -0.09090055 0.0055052927
000370 5f e4 26 be 8a d4 47 3d 86 15 c2 3d f9 4e 46 bc
       -0.16298054 0.048786677 0.094767615 -0.0121037895
000380 ff 0c ef 3d b6 cf 05 3e f4 c1 0d be ae 42 83 bd
       0.11672401 0.13067517 -0.13843518 -0.064092025
000390 16 58 c5 bc 24 73 b8 bd cd 6f d7 bd 97 8f 2b bd
       -0.024089854 -0.09006336 -0.10519371 -0.041884985
0003a0 a9 13 cf 3d 18 4b 5c bd 7d 96 49 bc aa 65 d6 bc
       0.10111172 -0.053782552 -0.012303946 -0.026171524
0003b0 04 c2 78 bc 18 e6 27 be 8d a2 23 bd aa 7d 73 bd
       -0.015182976 -0.16396368 -0.039949942 -0.059446014
0003c0 43 82 ce 3b a1 3a af 3d 95 50 a1 3d 45 43 0e 3d
       0.0063021495 0.085561045 0.07876698 0.034732122
0003d0 86 3c 4a 3a b9 c6 ab 3c b1 92 40 bd 75 cd 98 3d
       0.0007714707 0.020968782 -0.047014896 0.07461063
0003e0 c1 e2 ed 3c c9 f5 15 3e a4 7e 97 bd 95 79 73 bd
       0.029038789 0.14644541 -0.07397202 -0.05944212
0003f0 5a 7e 25 3d 15 0c c5 3d 77 d7 c3 3d 5a 5f d0 bd
       0.0404037 0.09621445 0.09562581 -0.10174437

fc2.bias f4 [128]
000000 32 ef 80 bd 69 b0 0a bd fb d9 c1 3d e8 8a c1 3c
       -0.06295623 -0.033859644 0.094654046 0.023625806
000010 5f 12 8e 3d 0b ab d3 3d 75 5b 53 3d d0 87 3a bd
       0.06937098 0.10335358 0.051600892 -0.045539677
000020 a9 36 ca bd e4 d5 68 bd 6f 18 15 bd 05 d5 ed bb
       -0.09873707 -0.056844607 -0.036400255 -0.00725806
000030 1f e0 13 3e 1e 5f 95 bd 62 70 a9 bd ac 34 32 3d
       0.14440964 -0.07293533 -0.082733884 0.043507263
000040 55 3f 84 bd fb bb c1 bd 6b 1a e2 bd dc 87 65 3d
       -0.06457392 -0.094596826 -0.11040195 0.05603777
000050 98 7c 4b bd b4 b9 07 bd b2 ba ea 3d b9 32 8f bd
       -0.04967937 -0.033136085 0.114613906 -0.069920965
000060 29 f2 dd bd 0f 0b cd 3c 2d 46 47 3d 4c b1 16 3e
       -0.10837204 0.025029687 0.04865091 0.14716071
000070 36 7b a8 3c e7 0b 2c bd 5d 8c b9 bd 90 01 f1 bc
       0.020566564 -0.04200354 -0.09059975 -0.02941969
000080 87 75 1d 3e 1b f5 22 bd 31 db ca bd 29 68 6d bc
       0.15376864 -0.039784532 -0.09905089 -0.014490166
000090 16 dc 56 bc 30 d6 ee bd 85 fb df 3d 6d 87 37 be
       -0.013113996 -0.11661947 0.109366454 -0.17922755
0000a0 86 19 ca 3d 35 5a c7 3d 8f b3 4a bd bb 2d 0a 3d
       0.098681495 0.097340025 -0.049487647 0.03373502
0000b0 ec 31 2f bd 1a 6f 5a 3d b8 64 c9 bd da b7 43 3c
       -0.04277222 0.05332861 -0.09833664 0.011945689
0000c0 eb 0b be 3c 65 57 79 bd 57 b1 24 bd 58 92 00 3d
       0.023199042 -0.06087436 -0.040208187 0.031389564
0000d0 99 c5 3b be de 93 17 3d 1e cb a0 bd e3 81 d0 3b
       -0.18337096 0.03700625 -0.078512415 0.00636314
0000e0 0e 68 bf bd af 02 1a bc f2 45 ce bc d6 38 fb 3c
       -0.09346019 -0.009400054 -0.025179837 0.03066675
0000f0 62 e2 20 3e 9a bd 84 3d 69 bd df bc ad 21 70 3d
       0.15711358 0.06481476 -0.027311997 0.058625866
000100 a5 97 9e 3d 00 3b 38 be 18 2e ba 3d d6 b1 a6 bd
       0.07743768 -0.17991257 0.09090823 -0.08139388
000110 c4 2f 73 bc 11 f2 98 bd b4 46 06 be bb 42 66 bd
       -0.014842931 -0.074680455 -0.13112909 -0.056215983
000120 5f 07 58 bd a0 2f e4 bc da 6a b6 bc 22 5f 54 bd
       -0.052741405 -0.02785474 -0.022267748 -0.05184854
000130 b3 62 bc 3d 24 cb 1c 3e 99 68 b2 b8 eb 7a 1a 3d
       0.09198513 0.15311867 -8.507184e-05 0.03771488
000140 6c 9f 72 3d 70 df 2e be 04 a1 1b 3b 5d 6d 3d bb
       0.059234068 -0.17077422 0.0023747096 -0.0028904297
000150 2f 79 0b 3d 76 ab 5c bd 8b d1 af 3d 27 60 26 3d
       0.034051117 -0.053874455 0.08584889 0.04061904
000160 d1 05 c0 3c 49 59 06 b9 18 b0 e0 3c 60 02 66 be
       0.023440273 -0.00012812497 0.027427718 -0.22461843
000170 e8 77 02 bb 82 87 3b 3a 5d 81 00 3e 96 e1 77 bd
       -0.0019907895 0.0007153676 0.12549348 -0.06051787
000180 b3 41 5d 3b 3d 9e a3 bd 67 a2 62 bd 6a 16 fa bd
       0.0033761084 -0.07989166 -0.05533066 -0.122113064
000190 f8 75 4e bd ba e7 0a bc da 51 c4 3c 18 bf 05 3d
       -0.050405473 -0.0084780995 0.023964811 0.032652944
0001a0 5a c8 61 bd 80 c2 74 bd 95 34 2d bd d8 86 a8 bd
       -0.05512271 -0.059755802 -0.042286474 -0.082288444
0001b0 cd 95 1b b8 c3 46 d4 3d 30 da a8 3d e6 09 fa 3d
       -3.7094393e-05 0.10365059 0.08244741 0.12208919
0001c0 82 13 10 be 8f d0 39 3b 26 08 0b be ee 20 8b 3d
       -0.14069942 0.002835307 -0.13577327 0.0679339
0001d0 11 f8 a7 bd d5 a8 54 3d 3e d0 4f 3d af 6f ec bd
       -0.08201612 0.051918823 0.050735705 -0.115447395
0001e0 8c 33 cc 3c b3 a5 9a bd c7 27 aa bc 00 6f a8 bd
       0.024926923 -0.07551136 -0.02077092 -0.082242966
0001f0 2f 62 83 bd f6 84 3a 3d 8b 84 eb bd a9 ff 1f be
       -0.064152114 0.045536958 -0.1149989 -0.1562487

fc3.weight f4 [128, 128]
000000 8f cf 4d 3d c4 1f 34 3d 3d 52 4a bd 18 b6 f6 3c
       0.05024677 0.043975607 -0.049394835 0.030116126
000010 4c 10 c8 3d 71 ac 85 3c c4 31 62 bd 85 0f 50 bd
       0.097687334 0.016317578 -0.05522324 -0.05079605
000020 31 a5 d5 3c 46 ab bb 3c 73 fe b3 ba 2c 56 1a 3d
       0.026079746 0.022908818 -0.0013732448 0.037679836
000030 6c 5d d5 3a b5 1a 66 3d bd 4e 1e bc 26 7c b6 3d
       0.0016278452 0.056177814 -0.009662327 0.08910398
000040 29 9d 62 3c 6f dc 8a bd a0 70 0a bd 77 18 ab bb
       0.013831415 -0.067803256 -0.033798814 -0.0052214223
000050 32 f5 4c bd 19 61 81 3d a4 56 a0 bc dd a3 a2 3d
       -0.050038524 0.06317348 -0.019572563 0.07941411
000060 c9 f7 3f 3d cb c3 7e 3d fc 43 3b bd 2f 27 8c bd
       0.046867166 0.06219844 -0.04571913 -0.06843411
000070 c7 10 44 3c 76 82 d4 3d f9 4b 0c bd 80 5c 63 ba
       0.011966891 0.10376446 -0.03425214 -0.00086731464
000080 63 e9 99 bc 30 76 c1 bc 37 c8 83 bd 11 b3 4e 3d
       -0.018788045 -0.023615927 -0.06434672 0.05046374
000090 e7 7b 5c bd 82 10 28 3d 81 7a b6 bd 0e da 8f bd
       -0.0538291 0.041031368 -0.089100845 -0.070240125
0000a0 67 5c 56 bd c2 ad 77 bd ae 37 d0 3d 58 93 60 3c
       -0.052334215 -0.060468443 0.1016687 0.0137070045
0000b0 46 d1 64 3d 4d a9 21 bd 48 42 a7 3d 4d 65 65 3d
       0.05586364 -0.0394681 0.08166939 0.05600481
0000c0 84 aa a8 ba 77 40 b6 3d 33 cb 44 bd 53 66 9a bd
       -0.00128682 0.088990144 -0.04804535 -0.07539048
0000d0 73 07 4c bd 56 56 6b 3d f3 99 8c 3d ec 98 af 3b
       -0.04981179 0.057455383 0.06865301 0.005358806
0000e0 72 3b 4c bc 4e fe 29 3d bf 1f 67 3d 3b a4 52 3d
       -0.012465345 0.04150229 0.05642676 0.051426154
0000f0 e1 38 64 bb b5 f0 54 3c bf d9 a2 bc 43 f4 fc bc
       -0.0034823942 0.012996842 -0.01987922 -0.030878192
000100 42 93 99 3b 2c 09 4d bd 29 34 57 3d ac 20 33 bd
       0.004686744 -0.050057575 0.05253998 -0.04373233
000110 d6 79 c7 bd 7b 61 65 3d 8e 0f 80 3d 75 fc 17 bc
       -0.09740035 0.056001168 0.06252967 -0.009276499
000120 08 79 93 3d 36 2f 8b 3d 16 f5 4a 3d 01 db c3 bc
       0.07200819 0.06796114 0.04955014 -0.02390814
000130 0e 44 bd 3c fe 59 3e bc 83 e3 83 3d 31 8d e5 bc
       0.02310374 -0.0116181355 0.06439879 -0.028021427
000140 18 07 8c bd c4 bb 86 3b 79 90 65 bb 4f 36 74 bd
       -0.068372905 0.004111739 -0.003502874 -0.059622105
000150 cd 7e 9a 3d c0 92 ca bd c8 e5 e8 3c d5 87 ac bc
       0.075437166 -0.098912716 0.02842988 -0.021060864
000160 ee b2 80 3d bb d4 10 3d ca 8b c3 3a 5a 2c 60 3c
       0.06284128 0.035359126 0.001491898 0.013682449
000170 8b ae 8b bd eb b8 91 bc 89 f7 51 bd 77 40 e8 bc
       -0.06820401 -0.017788371 -0.05126146 -0.028351052
000180 d9 75 a6 3d b7 63 8f bd d2 3d 0b bd 6d 6a 38 3d
       0.081279464 -0.07001441 -0.033994503 0.04502337
000190 c0 94 20 3c 82 25 28 3d 32 86 8f bd 7e 59 80 bb
       0.00980109 0.041051395 -0.070080176 -0.0039169183
0001a0 c1 08 6f bd 3d 13 a5 3b bf 6c fa 3b af 79 0e bd
       -0.058357958 0.005037694 0.007642358 -0.034784015
0001b0 cf ce 36 3d 0c 4b 53 3d 05 89 72 3d d5 84 47 3d
       0.04463082 0.051585242 0.059212703 0.048710663
0001c0 75 12 b0 bc e8 13 bc 3d 9e 3e 95 bd 8a ce 91 3d
       -0.021493176 0.09183484 -0.07287334 0.07119472
0001d0 24 ab 3f bd 28 a7 45 3c 06 6b cf 3d 90 ec 17 bc
       -0.04679407 0.012063779 0.10127835 -0.0092727095
0001e0 60 e6 a8 bc dd cb 55 bd 59 3e df bc 23 98 91 bd
       -0.020617664 -0.052196372 -0.02725141 -0.07109096
0001f0 cd e2 c8 3d 49 3e a4 bc 8d ce 85 bd ce 11 43 bd
       0.09808884 -0.020049231 -0.06533537 -0.0476244
000200 51 ce 01 3d 00 e8 18 3d 0d 3d b7 3c f3 99 3c bd
       0.0316909 0.037330627 0.022367978 -0.046045255
000210 71 e3 84 3d 1d 60 5a bd b8 fc 83 bd 6f 9e 31 3d
       0.064886935 -0.053314317 -0.06444687 0.043363985
000220 18 05 1a 3d c5 4f c4 b9 ce 57 62 3a c4 f8 8c 3d
       0.037602514 -0.00037443466 0.00086343 0.06883386
000230 b7 93 a6 3d 6a bf a8 3d b9 2e a2 3d 35 c2 d1 bc
       0.08133643 0.08239634 0.07919068 -0.0256053
000240 88 d6 9d 3d 16 1d 25 ba d9 d3 6a bd 25 df 84 bd
       0.07706934 -0.00062985846 -0.05733094 -0.06487874
000250 35 c5 7f 3a 43 12 60 3d b0 20 d5 3c e0 03 b8 3d
       0.0009756864 0.054704916 0.026016563 0.08985114
000260 74 de 78 bd 1c a1 47 3c 3f 42 a1 3d 54 95 c3 3c
       -0.060759023 0.012184408 0.078739636 0.023874916
000270 79 45 aa 3a 60 6f 23 bd f8 b9 c9 3c 13 dd dc bc
       0.0012990675 -0.039901137 0.02462481 -0.026960885
000280 a7 b1 14 bd a4 03 13 3d 5a 2b fb bc b2 f6 0e 3d
       -0.036302235 0.035892144 -0.03066032 0.034903236
000290 7f 7c cf bc dc 12 7b 3d 00 77 ad bc 14 1d f5 3c
       -0.025327919 0.061297283 -0.021174908 0.029921092
0002a0 90 68 30 3d 6e 20 6a bc 55 80 45 bd d5 7d dc bc
       0.04306847 -0.014289958 -0.04821809 -0.02691547
0002b0 40 26 9c 3d 4c 26 ab bd d2 27 03 3d 1d 52 89 3d
       0.07624483 -0.08356914 0.032020397 0.06705115
0002c0 b5 2a dc bc c5 5d 01 3d 29 78 68 3d 5e bf 09 3d
       -0.026875833 0.031583566 0.05675522 0.033629768
0002d0 70 57 f1 3c 84 30 81 3d c6 c1 f9 bc 12 67 50 bd
       0.029460639 0.06308082 -0.030487906 -0.050879546
0002e0 db 39 40 b9 3d 7b 0c 3d 18 d0 95 bd 9c e3 fa bc
       -0.000183321 0.034297217 -0.07315081 -0.03062611
0002f0 da 34 cc 3b 52 84 d6 bd 9f d4 d6 3c b5 a6 09 bc
       0.0062318863 -0.10474457 0.026224433 -0.008401562
000300 7d df c0 bc 4b cc 42 bd 21 c8 db 3a 15 b7 71 3d
       -0.023544068 -0.04755811 0.0016768017 0.05901249
000310 f0 af 95 bc a4 6c 8a bc 62 b0 bc bc 7f 05 a1 3c
       -0.01827237 -0.016897507 -0.023033325 0.019655941
000320 c0 74 8c 3d a5 e5 42 bc 76 e3 02 3d 91 56 e3 bd
       0.06858206 -0.011895572 0.031955205 -0.111004956
000330 5d b8 ea 3c 53 4f 8d bd e5 ee 98 3d 1e a4 0a bd
       0.028652364 -0.068998955 0.074674405 -0.03384792
000340 40 a6 e6 3c 9f 47 9c bc 14 e8 e7 3c 5c 11 96 bd
       0.028155446 -0.01907712 0.028308906 -0.0732753
000350 49 a9 c5 3d 33 dc 13 3d 53 a6 14 3c 2f c7 a8 bd
       0.09651429 0.03609867 0.009072858 -0.08241116
000360 49 80 97 bd 2b 79 e0 bc 8d ab a3 3d a4 d7 da 3d
       -0.07397515 -0.027401527 0.07991705 0.106856614
000370 66 31 f3 bc 06 1a 3d 3d 34 2d 05 3c cd 77 a5 bd
       -0.029686641 0.046167396 0.008128453 -0.08079491
000380 8c 6c b9 3c 4a b1 ac bd 02 81 a4 3d 76 8d 89 3d
       0.022634767 -0.08432253 0.08032419 0.06716435
000390 57 9a 89 bc 27 ce 9f bc fa b9 1c bd e3 18 b0 bd
       -0.016797228 -0.01950748 -0.0382633 -0.08598497
0003a0 a5 f0 85 bc cf 83 02 3d d5 21 41 bd ea 56 ba 3d
       -0.0163501 0.031863984 -0.047151405 0.09098609
0003b0 b2 4a af bd 78 bc ae bb b7 91 69 bd 6d b9 b6 bd
       -0.08559169 -0.005332526 -0.05702373 -0.08922086
0003c0 02 c9 89 3d 7a 90 5e bd 3e 57 58 bd fe a1 ad bc
       0.06727792 -0.054337002 -0.052817576 -0.021195408
0003d0 04 ff 83 3d be 03 16 bb d2 e0 9c 3d ef 81 4f 3d
       0.06445125 -0.0022890414 0.076600686 0.050661024
0003e0 4b b8 a4 3d 13 f9 21 3c 82 b5 a6 3d b5 7a b8 bc
       0.080429636 0.009886044 0.081400886 -0.022519449
0003f0 28 82 a0 3d cd 51 a3 bd be 0d 01 bd b9 f8 b3 3d
       0.07837325 -0.07974587 -0.031507246 0.087876745

fc3.bias f4 [128]
000000 e5 59 58 3c aa 21 12 3c 61 9a 16 be 9d ed 52 3d
       0.013205026 0.008919159 -0.14707328 0.051496137
000010 74 72 cd 3d e6 2b cb bd 36 f2 d3 bd 09 84 08 3e
       0.10031596 -0.09920482 -0.103489324 0.13331617
000020 85 7c b5 3d 89 7b 24 bd e5 da 09 3e 85 17 00 3e
       0.08861641 -0.040156875 0.13462408 0.12508972
000030 6b c5 85 bc 21 3a 9f bd 93 36 9f 3c 64 9e 8d 3d
       -0.016329488 -0.07774759 0.019435203 0.06914976
000040 19 38 a4 bb 73 56 1b 3e 81 36 df bc c2 5b 2e bd
       -0.00501157 0.15169697 -0.02724767 -0.042567976
000050 3c bc ec bd 42 c6 85 3d 8d 6f 9c bd d3 01 08 3e
       -0.1155934 0.06531955 -0.07638464 0.13281946
000060 49 b3 29 be f2 89 29 bc 40 23 9b bc 29 c1 0a be
       -0.16572298 -0.01034783 -0.018937707 -0.13550247
000070 70 15 9b bd 87 7e 04 3d 0b a8 c5 3d d3 c3 07 3d
       -0.07572448 0.03234723 0.09651192 0.033145737
000080 c1 47 85 bb ec 31 1b 3d 90 91 06 3e a1 3a 98 3d
       -0.0040673916 0.037889406 0.13141465 0.074330576
000090 07 23 a9 3c 5b 0c ef 3d 52 d7 0f 3a 27 4b 00 bd
       0.020646585 0.116722785 0.00054871023 -0.03132167
0000a0 8a f4 ab 3d 48 71 db 3d 29 5c ec bd 05 71 55 3b
       0.083962515 0.10714966 -0.11541016 0.0032568586
0000b0 7f f7 17 3d 76 ea f3 3d dc cf 12 3d f7 58 9a 3d
       0.037101265 0.11909954 0.03584276 0.075365
0000c0 16 30 19 3e 4a a9 24 3b b2 3c 04 3e 9f 92 32 3d
       0.1495975 0.0025125318 0.12913778 0.04359686
0000d0 05 3b af bc d2 3b 87 bd d6 44 67 3a 02 e9 bb 3d
       -0.021390447 -0.06603207 0.0008822208 0.09175302
0000e0 87 e2 81 bd 07 d6 0e be 33 b8 10 bc c6 cd 07 3e
       -0.06342035 -0.13948832 -0.008832979 0.1326209
0000f0 76 a7 73 3d 84 a5 15 3e 64 12 95 3d 34 eb d8 3d
       0.059485875 0.1461392 0.07278898 0.105917364
000100 d1 ad 1a 3e 20 81 08 bd 7a 17 e6 bd 96 15 a4 bd
       0.15105368 -0.03332627 -0.112349465 -0.0801193
000110 03 b9 9c bd 1c 76 b8 3c c3 40 fb 3d 86 c7 03 bd
       -0.07652476 0.022517256 0.12268212 -0.032172702
000120 db 4d 18 3e c4 fe 25 3d 13 c4 2a be d9 d8 96 bd
       0.1487345 0.040526167 -0.16676359 -0.07365579
000130 a7 1e c1 3d 48 e7 2a be af 51 a4 3d e8 62 af 3d
       0.094296746 -0.1668979 0.080233924 0.08563787
000140 1a 19 c4 bc 97 2f 0b be 4b f1 95 3c 0a 26 3e be
       -0.02393775 -0.13592373 0.018303534 -0.18569198
000150 37 ca 16 bd f3 6f f7 3d c6 97 a0 bb c6 77 db 3b
       -0.03681394 0.120818995 -0.0049009053 0.0066976277
000160 fe f7 0d 3e ba b1 20 be 25 b0 8b 3d ef 52 19 3e
       0.13864133 -0.15692797 0.06820706 0.14973043
000170 f7 3c 21 3e 4c 1e ad bd bc 4b cf 3c 36 70 3c bd
       0.15745912 -0.08453044 0.025304668 -0.04600545
000180 64 79 c7 3d 75 8f b4 3d 9d 83 57 3c 15 55 be bd
       0.0973995 0.08816425 0.013153938 -0.09293572
000190 ef be 96 bd 7c c4 87 3d 52 c2 76 3d 93 be 94 bb
       -0.073606364 0.06629273 0.060243912 -0.00453932
0001a0 99 c3 f2 bd ca 0c a1 3c be 6a 2a 3e 48 16 42 bd
       -0.118537135 0.019659419 0.16642281 -0.04738453
0001b0 19 45 84 bb 6a 19 9a bd 0c 32 f8 bd 28 8a db 3c
       -0.0040365574 -0.075243786 -0.12118921 0.026799276
0001c0 44 07 07 be eb 4b e0 3d 54 1b 0c 3e 53 46 b4 bd
       -0.13186365 0.1095198 0.136823 -0.08802476
0001d0 0d d8 a3 3d a7 25 17 be f5 ec 1c 3e 46 50 fb 3d
       0.08000193 -0.14760457 0.15324767 0.1227117
0001e0 0e ff 19 3d 87 3a 24 3e 62 70 8e 3c c2 98 82 3c
       0.037596755 0.16037951 0.017387573 0.015941981
0001f0 42 c5 1c be 80 14 38 3d 03 bd de 3d 77 16 0c 3d
       -0.15309623 0.044941425 0.10875895 0.03420111

out.weight f4 [1, 128]
000000 a6 f2 67 3d 7e aa a6 3d 09 78 93 3d cb ad 2e be
       0.056627892 0.081379876 0.07200629 -0.17058484
000010 ff df 47 be 6d b7 4c 3d 3f dc 00 3e 46 4d 24 be
       -0.19519041 0.049979616 0.12584017 -0.16045102
000020 b0 c7 02 bd c0 4b d2 3d 03 6c 39 be 6e 85 b8 bd
       -0.031928718 0.102683544 -0.1810761 -0.09009825
000030 2f a9 09 be ba ac 6a 3d a2 25 c9 bd 3c c7 3a be
       -0.13443445 0.05729363 -0.09821631 -0.18240064
000040 53 e2 48 be 19 26 11 be e1 f4 50 be 02 07 bb 3d
       -0.19617586 -0.1417469 -0.20405914 0.09132196
000050 6c da c9 3d 18 91 6d be 5d 28 db 3d e2 07 28 be
       0.09856114 -0.2319988 0.10701058 -0.16409257
000060 01 f4 d5 3d 47 1f a4 bd 1e b0 06 be 1b 2d cd 3d
       0.10446931 -0.08013778 -0.13153121 0.10018369
000070 8b 82 86 3d c0 43 b1 bd af 9c 4c be 86 54 ee bd
       0.06567868 -0.086555004 -0.19981645 -0.11637215
000080 e1 77 ea bd 78 b8 82 be f4 43 86 be 7a f3 99 bd
       -0.11448646 -0.25531363 -0.2622372 -0.075171426
000090 c3 da 02 be d9 d7 d0 bd 4e fd cd bd de 03 58 3d
       -0.12778763 -0.1019742 -0.1005808 0.052738063
0000a0 0c 2a 39 be fd bb 00 be 70 66 f9 3d 1f fb 15 be
       -0.18082446 -0.12571712 0.121777415 -0.14646576
0000b0 38 46 ed 3c df 0b 39 be fd 76 08 be 44 d8 24 be
       0.028964147 -0.18070935 -0.1332664 -0.16098124
0000c0 91 73 b9 bd 17 a7 96 3d 17 86 77 be 1a db f2 bd
       -0.09055246 0.073560886 -0.24172245 -0.118581966
0000d0 6b 9a a7 3d 0d 7b b3 3d 00 ce a7 3d df 63 7f be
       0.0818375 0.087637044 0.08193588 -0.24940442
0000e0 d4 69 53 3d 37 01 10 3e 22 20 b1 3d 68 a1 f7 bd
       0.051614597 0.14062963 0.08648707 -0.12091333
0000f0 f3 79 dc bd 83 9e 21 be 8f 6b ae bd 11 cc 04 be
       -0.107654475 -0.15783124 -0.08516609 -0.1296847
000100 a9 86 6c be 8d 2e 10 3d d8 80 b4 3c 51 56 9d 3d
       -0.23098244 0.035200644 0.022034094 0.07682479
000110 68 fc ff 3d c2 30 30 3d ad 57 2b be 1f 9d b5 3d
       0.124993145 0.04301525 -0.16732664 0.08867859
000120 3f 66 17 be eb 88 f3 bd 44 94 f6 3d d3 09 45 3d
       -0.14785098 -0.118913494 0.12039998 0.048105072
000130 80 11 8d bd 81 47 ea 3d 26 ee 2e be d7 dd 3f bd
       -0.068881035 0.114394195 -0.17083034 -0.046842422
000140 32 57 17 3d 5e 98 2f 3d 41 59 65 3d f9 3a 9a 3d
       0.03694839 0.042869918 0.055993322 0.075307794
000150 6b 31 09 3d d8 a5 85 bd bc 58 0d be 66 9b fe 3c
       0.033494394 -0.06525773 -0.1380338 0.03107996
000160 6b a1 99 bd 78 f7 c7 3d aa 81 d9 bd 09 73 f5 bd
       -0.07501491 0.09763998 -0.106204346 -0.11984832
000170 27 b7 95 bd d8 e7 e5 3d 1a 48 a1 bd f8 38 bd 3d
       -0.07310324 0.11225861 -0.078750804 0.092393816
000180 47 84 2f bd bc 34 6f be 34 54 e3 bd 29 3f ac 3d
       -0.04285076 -0.2335996 -0.11100045 0.08410484
000190 6d 43 f4 3d aa 11 24 bd ba 4c a6 bd ad f3 16 3d
       0.11926923 -0.04005591 -0.08120103 0.03685348
0001a0 8d a3 54 3d 7c 65 08 3d 23 6d 04 be 41 47 78 3d
       0.051913787 0.033299908 -0.12932257 0.060614828
0001b0 f8 80 ed bd 4a a9 97 3d 77 58 e2 3d db 64 86 bd
       -0.115968645 0.07405336 0.110520296 -0.065622054
0001c0 94 aa cc 3d 7e b7 4a be 4c 54 e0 bd 1f 73 ce 3d
       0.09993473 -0.19796559 -0.10953578 0.10080551
0001d0 3d e4 c4 bd c3 c4 ec 3d 98 67 24 be c4 ad 5c bd
       -0.096138455 0.11560967 -0.16055143 -0.053876653
0001e0 36 f2 ec bd d6 28 42 bd 40 4c b4 3c 24 fd a8 bd
       -0.115696356 -0.047402225 0.022009015 -0.08251408
0001f0 ab 0b e4 3d 09 5f a6 bd 30 59 23 be ec fc 23 be
       0.11135038 -0.08123595 -0.15951991 -0.16014451

batchn1.weight f4 [64]
000000 aa f6 73 3f 10 15 81 3f fb 9f 72 3f ae ad 77 3f
       0.95298254 1.0084553 0.9477536 0.9674939
000010 38 5f 66 3f 4f 53 7d 3f 2e 53 6b 3f a9 43 76 3f
       0.8998904 0.98955244 0.919238 0.9619699
000020 00 00 80 3f 1a e9 7e 3f 0d 6b 73 3f bd 3b 69 3f
       1.0 0.99574435 0.9508522 0.9110678
000030 30 b3 77 3f 00 00 80 3f b8 27 7f 3f 24 34 6c 3f
       0.96757793 1.0 0.9966998 0.9226706
000040 cb 8d 7e 3f 65 59 80 3f 87 35 82 3f 03 ec 7a 3f
       0.9943511 1.0027281 1.0172585 0.98016375
000050 48 f6 70 3f c4 77 7e 3f 78 7c 7e 3f c2 74 7a 3f
       0.94125795 0.994015 0.99408674 0.9783441
000060 38 36 86 3f 8e 58 71 3f 57 b4 7d 3f ea 38 80 3f
       1.0485296 0.9427575 0.991033 1.0017369
000070 3e 84 7f 3f af 9b 76 3f 1a 18 80 3f 00 00 80 3f
       0.9981116 0.96331304 1.0007355 1.0
000080 ad 41 81 3f f4 1a 78 3f 26 e5 73 3f f0 47 8a 3f
       1.0098168 0.9691613 0.9527153 1.0803204
000090 00 00 80 3f 00 00 80 3f 6b 3e 83 3f 8a f3 70 3f
       1.0 1.0 1.0253423 0.9412161
0000a0 44 25 71 3f 6f 05 7c 3f 2a a4 81 3f cf 62 7b 3f
       0.9419749 0.9844579 1.0128224 0.98197645
0000b0 aa e6 77 3f 3d 6c 83 3f 0f 0c 82 3f 83 16 74 3f
       0.9683634 1.0267407 1.015993 0.9534685
0000c0 6f 8a 7c 3f 2c 59 78 3f b2 a2 7d 3f 00 ba 89 3f
       0.9864873 0.97011065 0.9907638 1.0759888
0000d0 c8 59 80 3f a9 81 7b 3f f8 ca 71 3f 00 00 80 3f
       1.0027399 0.9824472 0.9445033 1.0
0000e0 5d 2c 7e 3f 74 5b 8b 3f 38 bd 83 3f ec 13 7a 3f
       0.99286443 1.0887284 1.029212 0.9768665
0000f0 e3 34 78 3f 5a 70 7b 3f 36 a5 81 3f 31 38 80 3f
       0.969557 0.9821831 1.0128543 1.0017148

batchn1.bias f4 [64]
000000 23 f0 4e 3d d6 e9 95 bd 9e 32 88 bc 2e fd 37 bd
       0.05052198 -0.07319991 -0.016625699 -0.044919185
000010 4b 8b 39 bc dc 40 e9 ba 89 63 8f 3d 4d a2 e4 bc
       -0.011324714 -0.0017795819 0.07001407 -0.027909422
000020 ac c2 da bd 3e 50 9e bd 43 2b 60 3d 76 b5 3d bd
       -0.10681662 -0.07730149 0.054728758 -0.046315633
000030 f6 57 89 bb 2a 62 b5 3d f9 51 18 bd fa e2 8a bd
       -0.004191394 0.08856614 -0.03718755 -0.067815736
000040 51 96 14 3d 39 26 eb bd a3 48 c7 bd a7 6d 96 bc
       0.036276165 -0.114819 -0.09730651 -0.018362833
000050 85 33 6b 3d 54 08 60 bb 35 94 7a 3d 85 d8 d2 bc
       0.05742218 -0.0034184651 0.061176497 -0.02573801
000060 ea c5 db 3c e8 4b 99 bd 35 5c a5 ba 27 17 3a bd
       0.026827771 -0.07485181 -0.0012615981 -0.045432236
000070 0f 4f ea bc dd 06 84 3d 58 85 1f 3d 35 e7 fa bd
       -0.028602151 0.064466216 0.038945526 -0.122511305
000080 1d 8f f0 bc 02 7f 65 bc 9b 52 a5 bc 95 26 78 be
       -0.029365117 -0.014007332 -0.02018099 -0.24233468
000090 02 22 89 bd bd bc 9c 3d e5 fc cc bd ff de 2b bd
       -0.066959396 0.076531865 -0.10009173 -0.041960713
0000a0 fb a0 70 3b 30 32 9a bd c5 70 85 bd 8f 8a 10 3c
       0.0036717046 -0.07529104 -0.0651565 0.008822097
0000b0 07 46 72 bd e5 fb 90 3d f0 9f c2 bc 91 60 57 bd
       -0.059148815 0.07079295 -0.023757905 -0.052582327
0000c0 87 6c ca bd 00 92 4c ba 50 38 1b bd ae 34 d8 3c
       -0.09883981 -0.0007803738 -0.0378955 0.026392307
0000d0 13 53 33 bc 0c 42 41 3d f6 ba 08 3d b0 37 98 3d
       -0.010945099 0.047182128 0.033381425 0.074324965
0000e0 ee 48 30 bd 49 b6 e3 bc 8b 0b d6 bd 1d 91 a0 bd
       -0.0430383 -0.027796881 -0.104514204 -0.07840178
0000f0 16 63 56 bd 9b cc 5b bc b2 f9 5f 3c d0 8a c0 bd
       -0.05234059 -0.013415481 0.013670372 -0.094014764

batchn1.running_mean f4 [64]
000000 04 00 00 00 04 00 00 00 05 d6 fa 3e 04 f5 1a 41
       6e-45 6e-45 0.4899141 9.684818
000010 75 fc 9d 3d c2 a7 88 41 58 a1 f3 3c b3 6e fc 3b
       0.07714168 17.081913 0.02974002 0.007703626
000020 00 00 00 00 3b 7d 9d 42 ac f8 99 3a 93 42 2d 3d
       0.0 78.74459 0.0011747084 0.04229982
000030 32 ee 65 42 00 00 00 00 ea 59 76 42 41 ff 1a 3e
       57.482613 0.0 61.587807 0.15136434
000040 ee 73 6b 3e 59 ae 77 42 97 03 e8 42 0f e1 cb 41
       0.22993442 61.92026 116.00701 25.484892
000050 40 a1 8a 3c 4c 7b f2 42 65 21 05 42 7f aa c2 40
       0.016922593 121.240814 33.28261 6.0833125
000060 b0 86 aa 41 9e ed 75 3d 01 88 b0 40 18 f3 dd 41
       21.315765 0.060041063 5.516602 27.743698
000070 a9 a0 c3 41 04 00 00 00 4b 9c 6f 42 00 00 00 00
       24.453447 6e-45 59.90263 0.0
000080 69 36 e8 3f 67 13 54 42 ac cb 88 41 84 9b ea 34
       1.8141605 53.018948 17.09945 4.369905e-07
000090 00 00 00 00 00 00 00 00 54 b2 71 42 27 07 25 42
       0.0 0.0 60.42415 41.256985
0000a0 5d 1b 98 42 da 80 82 42 c5 2b e0 42 c6 ba 23 3a
       76.053444 65.25166 112.08549 0.0006245788
0000b0 f3 7d 82 42 32 83 dd 41 96 7e a6 41 a1 ee 15 41
       65.245995 27.68906 20.81181 9.370759
0000c0 f3 57 5d 42 c0 82 2c 42 22 cd 26 42 ad 48 69 3f
       55.335888 43.127686 41.700325 0.9112652
0000d0 48 bc 8d 42 e0 2a d6 41 6a 5d 02 3c 00 00 00 00
       70.86774 26.770935 0.007956842 0.0
0000e0 5b 45 63 42 80 4e 1c 41 4f 77 ac 40 4c ee f8 40
       56.81773 9.769165 5.389564 7.779089
0000f0 af ff 0d 42 89 76 4e 3e f1 0e d0 3b c6 4b dc 41
       35.49969 0.20162405 0.0063494374 27.536999

batchn1.running_var f4 [64]
000000 04 00 00 00 04 00 00 00 18 c0 51 41 ad 70 45 43
       6e-45 6e-45 13.109398 197.44014
000010 60 e2 95 3f d5 49 47 43 b3 31 d6 3e e3 96 9c 3d
       1.1709709 199.2884 0.41834792 0.07645967
000020 04 00 00 00 28 98 80 44 5a 27 10 3b 34 eb 60 3f
       6e-45 1028.7549 0.0021996112 0.8785889
000030 95 73 8a 44 04 00 00 00 e0 ad 68 45 8b be f3 3f
       1107.6119 6e-45 3722.8672 1.9042524
000040 fa bb 55 40 e5 f3 6b 44 c6 b0 61 45 27 ed 49 44
       3.3395982 943.81085 3611.0483 807.7055
000050 53 4b 6a 3e ec 6a 35 45 ab 7b a4 43 c2 4d 3f 43
       0.22880296 2902.6826 328.96616 191.30374
000060 9b f9 66 43 83 36 2f 3f 45 76 d5 42 18 e0 23 45
       230.97502 0.68442553 106.730995 2622.0059
000070 6d de e3 43 04 00 00 00 11 c6 c1 44 04 00 00 00
       455.7377 6e-45 1550.1896 6e-45
000080 20 53 e6 41 2a 29 e4 44 08 a4 b1 43 6d ce bd 33
       28.790588 1825.2864 355.2815 8.838547e-08
000090 04 00 00 00 04 00 00 00 c3 75 08 44 9b fe 5d 45
       6e-45 6e-45 545.84 3551.9128
0000a0 dc b4 8a 45 8e 32 23 44 c2 7a 82 45 00 1b d3 3c
       4438.6074 652.7899 4175.3447 0.02576971
0000b0 7e f9 80 44 9a b6 ce 43 77 d7 70 44 aa c1 3c 43
       1031.7966 413.42657 963.36664 188.7565
0000c0 70 a6 d0 43 1d b7 ef 44 52 9c 19 45 e6 4f 84 3e
       417.3003 1917.7223 2457.77 0.25842208
0000d0 a7 99 60 44 85 45 85 43 8a 2f cd 3d 04 00 00 00
       898.4008 266.54312 0.10018833 6e-45
0000e0 c9 a8 4d 45 b5 e6 ac 43 b5 c9 97 42 ef 25 c2 42
       3290.549 345.8024 75.89396 97.07409
0000f0 f9 e9 19 45 12 a8 a8 40 e2 bd 13 3f fa 5e fb 42
       2462.6233 5.2705164 0.57711613 125.6855

batchn2.weight f4 [128]
000000 f1 75 87 3f 94 55 89 3f 86 3e 8e 3f 0c 77 87 3f
       1.0582868 1.0729241 1.1112831 1.0583205
000010 0d 45 86 3f 43 e2 87 3f ee f9 85 3f 1a ba 84 3f
       1.0489823 1.0615925 1.0466897 1.0369294
000020 f3 7d 84 3f da ea 87 3f 73 4f 85 3f 3d 57 88 3f
       1.0350937 1.0618546 1.0414871 1.0651623
000030 8d 7a 84 3f d8 8a 8a 3f 6d 37 8a 3f 0a 49 85 3f
       1.03499 1.0823622 1.0798165 1.0412915
000040 47 93 86 3f 9a bb 83 3f b6 4c 87 3f 0d 7d 86 3f
       1.0513695 1.0291626 1.0570285 1.0506912
000050 42 ba 8a 3f 69 dc 86 3f 93 62 89 3f 7f 8f 89 3f
       1.0838091 1.0536014 1.0733207 1.0746917
000060 e1 3a 86 3f 28 f3 81 3f 1d c7 8d 3f 41 3d 86 3f
       1.0486718 1.015233 1.107639 1.0487443
000070 0d 71 88 3f 4c b3 84 3f 11 d7 87 3f c5 2a 8e 3f
       1.06595 1.0367217 1.0612508 1.1106802
000080 b2 05 8b 3f 51 07 85 3f b1 06 88 3f fa 4a 88 3f
       1.0861113 1.0392858 1.0627042 1.0647881
000090 3b 78 8a 3f 5f 51 8a 3f 4a c4 8b 3f 29 b4 83 3f
       1.0817941 1.0806082 1.0919278 1.0289356
0000a0 93 ff 8c 3f 40 94 8c 3f 1b 09 8a 3f ad 53 89 3f
       1.1015495 1.0982742 1.0784029 1.0728661
0000b0 97 76 86 3f 8d bd 87 3f bf 1a 8b 3f f6 86 8c 3f
       1.0504941 1.0604721 1.0867537 1.0978687
0000c0 d4 63 87 3f 90 4e 85 3f b2 57 87 3f 2a 90 86 3f
       1.057734 1.04146 1.0573637 1.0512745
0000d0 7b 78 87 3f 70 60 82 3f 7f ff 86 3f 30 65 8b 3f
       1.0583643 1.018568 1.0546721 1.0890255
0000e0 74 b9 8e 3f d7 fd 84 3f 35 bc 8b 3f a0 71 8a 3f
       1.1150346 1.0389966 1.0916811 1.0815926
0000f0 8c 53 85 3f 90 7f 8b 3f 0e 90 90 3f 7d 72 86 3f
       1.0416121 1.0898304 1.1293962 1.0503689
000100 94 1c 84 3f 29 73 87 3f 68 99 87 3f 8c 1e 86 3f
       1.0321221 1.0582019 1.0593691 1.0478072
000110 b9 ce 84 3f 16 57 8c 3f f6 c7 86 3f f9 05 8c 3f
       1.0375587 1.0964077 1.0529773 1.0939323
000120 17 ed 83 3f b9 4d 8a 3f 2b dc 88 3f 01 2d 89 3f
       1.0306729 1.0804969 1.069219 1.0716859
000130 d7 e9 87 3f bd dc 86 3f 3d 3d 85 3f 1d 84 86 3f
       1.0618237 1.0536114 1.0409313 1.0509068
000140 bf 8d 88 3f 0b 19 84 3f cf 1e 86 3f 68 74 85 3f
       1.0668257 1.0320143 1.0478152 1.0426149
000150 8c 90 88 3f 19 79 8b 3f a2 87 88 3f 3a d7 89 3f
       1.0669112 1.0896331 1.0666392 1.0768807
000160 0b 7e 83 3f 77 72 83 3f bc d6 88 3f bd 9a 89 3f
       1.027284 1.0269307 1.0690532 1.0750347
000170 a1 72 89 3f b9 9a 8c 3f f2 6d 89 3f 8b 2c 83 3f
       1.0738107 1.0984718 1.0736678 1.0247968
000180 c9 cd 87 3f 42 bc 83 3f 5e ff 86 3f 91 2d 8c 3f
       1.0609676 1.0291827 1.0546682 1.0951406
000190 ff 78 89 3f b6 15 89 3f aa 12 8a 3f fe 15 89 3f
       1.074005 1.0709751 1.0786946 1.0709836
0001a0 6c 56 85 3f 64 80 8b 3f bc 2c 88 3f cb 02 83 3f
       1.0416999 1.0898557 1.0638652 1.0235227
0001b0 e8 90 8b 3f 44 25 84 3f 98 18 8a 3f 6b 9c 86 3f
       1.0903597 1.0323873 1.0788755 1.0516485
0001c0 40 2e 8a 3f e2 dc 81 3f e6 0c 8e 3f dc 1b 89 3f
       1.0795364 1.0145533 1.1097686 1.0711627
0001d0 0a 72 89 3f ff 14 8a 3f 7c 91 8c 3f 57 33 88 3f
       1.0737927 1.0787657 1.0981898 1.0640668
0001e0 48 33 86 3f 02 dd 86 3f 17 53 90 3f 8c d7 86 3f
       1.04844 1.0536196 1.1275357 1.053453
0001f0 2f 3e 8c 3f b8 2f 87 3f c6 86 89 3f c1 a6 86 3f
       1.0956477 1.0561438 1.0744255 1.0519639

batchn2.bias f4 [128]
000000 fe 4a e1 bd c5 5c 52 bd d8 24 f9 bd 4f 3c b0 bd
       -0.11000632 -0.051358003 -0.121652305 -0.08605253
000010 45 27 a7 bd c5 22 ce bc 42 69 27 3c aa ab a0 bd
       -0.08161787 -0.025163064 0.0102179665 -0.07845242
000020 df d4 c1 bd b8 c1 cd bd e4 01 b4 bd 51 b3 9e bd
       -0.0946443 -0.100467145 -0.08789423 -0.07749046
000030 5d da 67 3d 71 de db bd 47 d7 a8 bd c1 ef 9b bd
       0.05660473 -0.10735787 -0.08244186 -0.07614089
000040 a8 79 9b bd b7 3e 9e bd 1c 58 bc bd 6b 21 95 bd
       -0.075915635 -0.07726806 -0.09196493 -0.072817646
000050 9f 78 38 bd 04 8d ac bd ae f0 7c bd 86 c0 a1 bd
       -0.04503691 -0.08425334 -0.061752968 -0.07898049
000060 97 ea 8e bd cb b4 fc ba 8c cd 45 bd a0 88 2a 3d
       -0.06978338 -0.0019279955 -0.048291728 0.041634202
000070 d7 e3 a9 bd 46 a3 bb bd 5e 12 9a bd 70 c7 81 bd
       -0.0829541 -0.09162001 -0.075230345 -0.06336868
000080 5f 6c 39 3d 10 ed e8 3c 10 6d 45 3d b2 d7 08 be
       0.045269366 0.028433353 0.048199713 -0.13363531
000090 e4 4f a7 bc 7e 7e ab bd 05 c4 69 3b d2 14 9e bd
       -0.020423837 -0.08373736 0.0035669815 -0.07718815
0000a0 d8 4d 6e 3d b6 a5 67 bb a7 fc 83 bd 2f b1 4b bd
       0.058179706 -0.0035346574 -0.06444674 -0.049729522
0000b0 9f 8c 76 bd 63 c2 cd bd 06 36 af bd 18 0e d4 bc
       -0.0601927 -0.10046842 -0.08555226 -0.025885627
0000c0 18 b0 21 3d 42 07 8a bd de bb a8 bd 8b 0b 4a 3d
       0.039474577 -0.067396656 -0.08238958 0.049327414
0000d0 07 71 bc bd 36 40 98 bd 3e c8 8c bd 03 73 cd bd
       -0.09201246 -0.07434122 -0.06874131 -0.10031702
0000e0 ca d7 b4 bd 0f a8 94 bd dd cb 9d bd bb ff 80 bd
       -0.08830221 -0.07258617 -0.077048995 -0.06298777
0000f0 d0 41 64 3d b1 eb 6d bc 4e 6b 95 bd bc 46 17 3d
       0.055726826 -0.014521525 -0.07295857 0.036932692
000100 6c 4a 72 bd 27 83 ad bd 69 e1 c5 3c 9f 12 6e bd
       -0.059153005 -0.08472281 0.024155336 -0.058123227
000110 06 46 5b bd 0f 79 83 bd bd 29 d2 bd 08 ab a4 bd
       -0.053533576 -0.064195745 -0.10261867 -0.08040434
000120 25 08 7e bd 2b 98 af bd a0 dd f2 bd eb 72 1a 3d
       -0.062019486 -0.085739456 -0.11858678 0.03770725
000130 a4 9c b4 bd a7 57 8d 3b 58 eb b4 bd 4e 93 8a bd
       -0.08818939 0.0043134275 -0.08833951 -0.067663774
000140 5f d8 3e bd 20 5d c9 bd f8 36 09 bd db ec fa 3c
       -0.046593066 -0.09832215 -0.033499688 0.03063052
000150 c3 11 e1 bd 15 3f ae bd de 64 ff 3c d6 4f 23 3c
       -0.10989716 -0.08508126 0.031176027 0.009967765
000160 4c 4f 9e bd 1a b6 96 bd c4 af ac bd 28 7b d0 bd
       -0.077299684 -0.07358952 -0.08431962 -0.1017974
000170 52 db 46 3c 80 db 0d bd 79 7e ba 3b 57 b5 92 bd
       0.012137251 -0.03463316 0.0056913462 -0.07163494
000180 38 56 70 bd 56 81 6b bd 02 a9 ce ba 36 53 a2 bd
       -0.058675975 -0.05749639 -0.0015766921 -0.079260275
000190 5d 9f 1c 3d 83 18 05 3d 8c 5a 34 3d cc ee aa 3d
       0.03823792 0.03249408 0.044031665 0.08346328
0001a0 8e 08 86 bd fd 11 ef bd 48 12 5c bd 74 cf ad bd
       -0.065446004 -0.11673353 -0.05372837 -0.08486834
0001b0 e5 fd 68 bc 4c af 89 bd 0d 9b 5a 3c 7c e1 4e bd
       -0.014220689 -0.06722888 0.013342631 -0.050508007
0001c0 99 27 c7 bd 85 b7 82 bd 3f c4 8b bd 1c 73 b4 bc
       -0.097243495 -0.0638266 -0.0682454 -0.022027545
0001d0 3d 76 a5 bd 84 75 8a bd 5b 8e 6e bd f9 a0 b2 bd
       -0.08079193 -0.067606956 -0.05824123 -0.08722109
0001e0 00 8b a2 bd 87 76 bf bd 96 cd a8 bd 5b ac 4f bd
       -0.079366684 -0.09348779 -0.082423374 -0.05070148
0001f0 7e a6 bc bd 4c d9 35 3d 05 61 42 3d 48 f0 5b bd
       -0.09211443 0.044396684 0.047455806 -0.053695947

batchn2.running_mean f4 [128]
000000 20 67 80 3e b1 4e e4 3e 86 40 1e 3e e3 18 ca 3e
       0.25078678 0.44591287 0.15454301 0.39472112
000010 9d 09 b2 3e 40 10 39 3f 6d 24 21 3f 2f a6 76 3e
       0.3477296 0.7229042 0.62946206 0.24086832
000020 d8 95 74 3e d1 d5 28 3e 0e c1 8b 3e b6 9b 92 3e
       0.23885286 0.16487814 0.27295727 0.28634423
000030 98 f0 0b 3f 11 95 d8 3d b5 a7 27 3e d0 09 b2 3e
       0.5466399 0.10575307 0.16372569 0.3477311
000040 3f d8 73 3e 64 3d dc 3d 36 03 6d 3e c0 4e 3e 3e
       0.2381296 0.10753897 0.23145756 0.18584728
000050 8d 7c f0 3e c3 14 93 3e 21 cd 86 3e f1 b3 fe 3d
       0.46970025 0.28726777 0.26328376 0.12436665
000060 b5 26 4c 3e 12 af 7c 3e c9 8a 83 3e 18 4e e2 3e
       0.1993664 0.24676159 0.25691822 0.44200206
000070 e1 47 26 3e 49 3a 4b 3e 13 1d bb 3e 0e eb c0 3d
       0.16238357 0.19846453 0.3654562 0.09419833
000080 ad a9 f7 3e 68 15 f1 3e 63 08 1d 3e 3a f0 d3 3d
       0.4837164 0.47086644 0.1533523 0.10348554
000090 70 9f c9 3e 8d 7d 60 3d ee 48 13 3f dd 70 40 3e
       0.39379454 0.054807235 0.57533157 0.18793054
0000a0 b9 af 9d 3e eb d5 0a 3f 14 e1 bc 3e 3d 05 17 3f
       0.30798128 0.5423266 0.3689047 0.5899237
0000b0 4c 6e 3b 3e 16 a1 43 3e 9c 90 6a 3e 0d 90 db 3e
       0.18303794 0.19104418 0.22906727 0.4288334
0000c0 9b 41 d4 3e 80 c8 4e 3e 29 b9 8f 3e e2 8b 14 3f
       0.41456303 0.20193672 0.28070953 0.58025944
0000d0 a6 26 88 3e f8 40 39 3e 54 b6 92 3e 2e 3f fc 3e
       0.26591986 0.1809119 0.2865473 0.49266952
0000e0 67 a5 6c 3e ca 98 7e 3e 04 2d 95 3e 9a 3f e3 3e
       0.23109971 0.24862972 0.29135907 0.44384462
0000f0 d0 d2 a8 3e a6 ae 89 3e d9 7c bc 3e 6f 89 a2 3e
       0.32973337 0.2689106 0.36814 0.3174548
000100 37 c5 a1 3e ca 71 82 3e b1 f6 af 3e 1e 5f b2 3e
       0.31595775 0.2547744 0.34367898 0.34838194
000110 2c 23 86 3e 8d 25 88 3e b8 ab 33 3e b4 e5 ee 3e
       0.2619871 0.2659115 0.17545974 0.46659625
000120 74 50 aa 3e 28 19 b5 3e cf 95 06 3e d1 57 ea 3e
       0.33264506 0.35370755 0.13143085 0.45770124
000130 f1 1b 51 3e 93 74 d8 3e e1 c4 1e 3e a6 90 b1 3e
       0.20420815 0.4227644 0.15504791 0.3468067
000140 d9 fb 9e 3e 7f 0e 85 3e b8 0f e1 3e 31 31 c3 3e
       0.3105152 0.25987622 0.43957305 0.38123468
000150 21 62 2d 3e 0c bc 8b 3e 1e a3 97 3e 6b 52 d1 3e
       0.16931964 0.27291906 0.29616636 0.40883192
000160 a7 b7 8a 3e aa af 50 3e f8 ee 89 3e 5c 20 52 3e
       0.2709324 0.2037951 0.2694013 0.20520157
000170 95 02 a4 3e 52 fe b3 3e c5 d8 b4 3e a5 8d b5 3e
       0.3203322 0.35154969 0.35321632 0.3545963
000180 a7 34 e9 3e a8 11 00 3f 4c 96 9e 3e 15 9d c5 3e
       0.45547983 0.5002694 0.30974042 0.38596407
000190 7c 96 6b 3e a5 4a 0e 3f 14 34 a1 3e e3 67 e7 3e
       0.23006624 0.5558265 0.31485045 0.45196447
0001a0 50 03 7b 3e db 93 13 3e 61 a0 9e 3e 2c 23 a2 3e
       0.24512982 0.14411871 0.30981734 0.3166746
0001b0 1d d7 d0 3e fa 34 e6 3e 21 1d a6 3e 7f 24 be 3e
       0.40789118 0.44962293 0.324441 0.3713722
0001c0 39 80 bc 3e d3 49 a2 3e ec 41 8b 3e e1 c2 58 3f
       0.36816576 0.31696948 0.27198732 0.8467236
0001d0 d7 af 98 3e 9b 5b 8f 3e de 5c bb 3e 35 09 03 3e
       0.29821655 0.27999577 0.3659429 0.12796481
0001e0 3f 08 a4 3e d8 b5 df 3d 67 6d 91 3e 06 22 23 3e
       0.3203754 0.10923356 0.2840378 0.15930948
0001f0 c3 0f 30 3e 9f 30 8b 3e 61 ee c5 3e 82 2d 17 3e
       0.17193513 0.27185532 0.3865843 0.14763454
