models/dnn.pth (torch, 111825 bytes, 15 tensors)

fc1.weight f4 [64, 10]
0.26822263 -0.13970773 -0.2693715 -0.15089443 0.24188823 -0.27696073 -0.14651941 0.27565902
0.17898577 0.16373907 0.05525753 -0.20954654 0.19110683 -0.17953984 -0.26326942 0.051624894
0.23266983 -0.20793955 0.25077906 -0.11177748 0.25807515 -0.24374034 -0.15271328 0.20605868
0.27781755 -0.039035596 0.16139123 -0.014423074 0.043962426 0.28594366 -0.10961783 0.019042892
-0.05488248 0.20634736 -0.2705644 0.08833564 -0.010573155 0.25198177 -0.11598659 0.17225958
0.29486308 -0.28135327 0.17752911 0.21565717 0.2347954 -0.13033023 -0.048687782 0.21368474
-0.18779199 -0.13538693 0.31193408 0.07203597 -0.22320576 -0.3081691 -0.15851223 0.08241743
-0.26590008 -0.20769589 -0.29908183 -0.30363184 -0.13970107 0.08207437 -0.23703144 0.14592987
-0.19914366 0.24824564 -0.12180812 -0.017827453 -0.16776848 0.18161124 -0.31127083 0.10708551
-0.17390199 -0.072600976 -0.28127834 -0.23659915 0.3082695 0.07805442 -0.072407365 0.28132373
0.10806107 0.29301566 -0.08204786 0.28876504 -0.2629937 0.025784412 0.28227186 0.2535762
-0.17196108 -0.22352086 0.0668598 -0.032852165 -0.22829103 0.26017886 -0.17889486 0.29575956
0.053043164 0.130449 -0.29997158 0.19876036 0.05491738 0.27735686 -0.09488588 0.011613097
0.0535846 0.2265577 0.2589868 0.19675918 -0.24786392 0.21581608 -0.05296029 0.030783927
0.023632824 -0.053368513 -0.24913982 -0.22689368 -0.16173396 0.05372279 0.039564036 0.2735269
0.25637025 0.07466329 0.27678335 0.04994405 0.14012004 0.061629176 0.20712607 0.010365636
0.16164172 0.21600153 0.15049021 -0.27383402 0.29690593 -0.036994673 0.05245888 0.28968427
-0.24929388 0.16430897 0.14421321 0.15840627 -0.22367442 0.04955421 -0.20854567 0.27028117
-0.07065765 0.119075045 -0.28994647 -0.17041144 0.13643567 0.07447725 0.073816374 -0.30567434
-0.028184379 -0.06727677 -0.17464104 0.19351475 -0.17485115 -0.04804082 0.0050331578 -0.15196072
0.2568092 -0.015703212 -0.038382556 0.22232798 0.05982269 0.18538152 -0.05737517 -0.049524836
-0.10956371 0.30018544 0.09875427 -0.14102876 0.10641697 0.056213144 -0.090406984 -0.18927535
0.1343037 -0.21548931 0.3061192 0.27668142 0.29859278 -0.20241962 -0.30337042 -0.023433689
-0.2868836 -0.14464879 -0.2990212 -0.2606526 -0.085379004 -0.16035694 0.2991678 -0.15676217
0.29802465 -0.2376585 -0.17959958 -0.0904658 -0.07183005 -0.29885438 0.26391262 0.029308233
-0.18290944 -0.28641945 0.20273873 0.2959315 0.25689185 -0.10682939 0.24483305 0.071017124
0.032943066 -0.011964839 0.25516117 0.23680906 0.098610714 0.19996735 0.23651415 0.07516801
0.058449637 -0.2579702 0.126346 -0.11510497 -0.13039276 0.22022398 -0.15879361 0.12170371
-0.26562715 0.25211042 0.2717755 -0.016703282 -0.10457838 -0.28988284 0.23072276 0.27732238
-0.12031581 -0.08461617 0.29463094 -0.1490877 -0.19121124 -0.13409635 -0.18124165 -0.23610051
-0.1636875 0.11384646 -0.22461666 0.2714742 0.04219918 -0.021942653 -0.028124891 -0.19746713
0.25315613 0.1844995 -0.004016808 -0.12033718 0.052668124 0.3000952 0.26712438 0.2391202
00000000: 7a54 893e 8b0f 0fbe 10eb 89be 1284 1abe
00000010: 8cb1 773e cccd 8dbe 2f09 16be 2e23 8d3e
00000020: 0c48 373e 37ab 273e b855 623d 5e93 56be
00000030: 82b1 433e 4bd9 37be 40cb 86be a074 533d
00000040: 0041 6e3e 1bee 54be 1d66 803e 97eb e4bd
00000050: 6d22 843e 1197 79be df60 1cbe 0c01 533e
00000060: 1a3e 8e3e cae3 1fbd be43 253e c24e 6cbc
00000070: f211 343d 3567 923e 507f e0bd d7ff 9b3c
00000080: 74cc 60bd b94c 533e 6b87 8abe 51e9 b43d
00000090: 073b 2dbc c103 813e 618a edbd d164 303e
000000a0: 4bf8 963e 890d 90be 31ca 353e 3cd5 5c3e
000000b0: 356e 703e 4a75 05be d76c 47bd 2cd0 5a3e
000000c0: 8b4c 40be dfa2 0abe d3b5 9f3e 9887 933d
000000d0: 0d90 64be 57c8 9dbe 0851 22be 78ca a83d
000000e0: 0e24 88be 3bae 54be 4121 99be a275 9bbe
000000f0: cc0d 0fbe 9b16 a83d 5fb8 72be a46e 153e
00000100: 51ec 4bbe 1b34 7e3e 8976 f9bd e10a 92bc
00000110: 80cb 2bbe 4cf8 393e e45e 9fbe a64f db3d
00000120: 5d13 32be d2af 94bd b703 90be 0c47 72be
00000130: 80d5 9d3e ffda 9f3d 504a 94bd aa09 903e
00000140: 1f4f dd3d 2606 963e b508 a8bd 03d9 933e
00000150: 1ca7 86be d539 d33c f085 903e bdd4 813e
00000160: 9116 30be a7e2 64be caed 883d fe8f 06bd
00000170: 20c5 69be 2a36 853e 3730 37be cc6d 973e
00000180: ca43 593d 6c94 053e e095 99be d687 4b3e
00000190: 0cf1 603d b801 8e3e 8753 c2bd dc44 3e3c
000001a0: 877b 5b3d befe 673e eb99 843e 3d7b 493e
000001b0: 0ad0 7dbe e4fe 5c3e e4ec 58bd 932e fc3c
000001c0: a099 c13c f198 5abd 821e 7fbe d156 68be
000001d0: 969d 25be 6e0c 5c3d e60d 223d b80b 8c3e
000001e0: f642 833e 11e9 983d 8cb6 8d3e 2292 4c3d
000001f0: a17b 0f3e e06e 7c3d db18 543e a1d4 293c
00000200: 6885 253e 812f 5d3e 1b1a 1a3e f933 8cbe
00000210: 0e04 983e ba87 17bd 1fdf 563d 7f51 943e
00000220: e546 7fbe 9c40 283e a1ac 133e 4135 223e
00000230: e80a 65be 5bf9 4a3d ff8c 55be 4b62 8a3e
00000240: f5b4 90bd 9edd f33d dd73 94be 5680 2ebe
00000250: cbb5 0b3e 8787 983d 0a2d 973d 5981 9cbe
00000260: ede2 e6bc 67c8 89bd 1ad5 32be bb28 463e
00000270: 2e0c 33be 73c6 44bd 30ed a43b 979b 1bbe
00000280: 7f7c 833e 06a4 80bc 0737 1dbd f2a9 633e
00000290: a308 753d a7d4 3d3e 3a02 6bbd 8eda 4abd
000002a0: f062 e0bd e8b1 993e ae3f ca3d d869 10be
000002b0: 24f1 d93d c13f 663d 4c27 b9bd 66d1 41be
000002c0: e986 093e 3ba9 5cbe a8bb 9c3e 30a9 8d3e
000002d0: 27e1 983e 1747 4fbe 5e53 9bbe 02f8 bfbc
000002e0: 68e2 92be d01e 14be 4f19 99be 4274 85be
000002f0: 30db aebd 9c34 24be 862c 993e 4386 20be
00000300: b096 983e c05c 73be f4e8 37be 2246 b9bd
00000310: a21b 93bd 7103 99be 8e1f 873e d217 f03c
00000320: 9d4c 3bbe 92a5 92be be9a 4f3e 5584 973e
00000330: 5487 833e 5ec9 dabd 84b5 7a3e 6d71 913d
00000340: 4fef 063d 2c08 44bc 7ca4 823e 137e 723e
00000350: 6af4 c93d 3ec4 4c3e c430 723e b0f1 993d
00000360: e368 6f3d ac14 84be d960 013e 28bc ebbd
00000370: ae85 05be 6582 613e cb9a 22be cb3f f93d
00000380: 4800 88be 9e14 813e 2926 8b3e 52d5 88bc
00000390: 312d d6bd 866b 94be 9642 6c3e 33fd 8d3e
000003a0: 2368 f6bd 3e4b adbd ded9 963e 72aa 18be
000003b0: e1cc 43be 8e50 09be 6997 39be 55c4 71be
000003c0: b29d 27be 5528 e93d e901 66be abfe 8a3e
000003d0: 0cd9 2c3d 14c1 b3bc 2c66 e6bc d334 4abe
000003e0: ae9d 813e 70ed 3c3e 6d9f 83bb 5773 f6bd
000003f0: 88ba 573d 14a6 993e 87c4 883e eddb 743e

fc1.bias f4 [64]
0.2636052 0.18979388 0.07967373 0.14909275 -0.0671431 0.31435925 -0.27070507 -0.16079427
-0.16569334 -0.22602679 0.24665333 -0.20694 0.2649649 0.06714409 -0.27013084 0.09034603
0.18485475 0.07902476 -0.1614772 0.25170568 0.2643572 0.018896274 0.08261557 0.21409197
-0.258365 0.1986412 -0.22040673 -0.27029556 -0.06514056 0.10012961 -0.023679264 0.16403987
0.15360223 -0.055485766 0.12586465 0.18077093 0.23251724 0.15935364 0.022030795 0.08363118
-0.040000383 -0.25888813 -0.1696187 0.17984793 -0.21448448 0.20862165 0.308299 0.24491516
-0.2158232 0.12319112 0.13490835 0.17566434 -0.27697903 -0.16962583 0.03691712 0.24227801
-0.31325284 0.21622199 0.3141216 0.26305237 -0.26293424 0.15809432 -0.10689007 0.20005006
00000000: 43f7 863e 5459 423e fb2b a33d c5ab 183e
00000010: 5282 89bd b2f3 a03e db99 8abe 41a7 24be
00000020: 84ab 29be 9173 67be b192 7c3e 14e8 53be
00000030: 7ba9 873e d782 893d 974e 8abe 5707 b93d
00000040: 904a 3d3e bcd7 a13d 475a 25be 91df 803e
00000050: d459 873e 5ccc 9a3c 5a32 a93d ed3a 5b3e
00000060: 6b48 84be 9968 4b3e 4db2 61be 2e64 8abe
00000070: 6a68 85bd c110 cd3d 04fb c1bc 11fa 273e
00000080: e749 1d3e 0b45 63bd aae2 003e 041c 393e
00000090: 0019 6e3e 9a2d 233e ed79 b43c d346 ab3d
000000a0: 71d7 23bd fc8c 84be 86b0 2dbe 0e2a 383e
000000b0: d2a1 5bbe eaa0 553e 5ed9 9d3e 0acb 7a3e
000000c0: c200 5dbe a04b fc3d 6a25 0a3e 5ae1 333e
000000d0: 32d0 8dbe 65b2 2dbe 6836 173d ba17 783e
000000e0: ad62 a0be 4c69 5d3e 8cd4 a03e cdae 863e
000000f0: 519f 86be 7ae3 213e 2ee9 dabd ecd9 4c3e

fc2.weight f4 [128, 64]
-0.053376075 -0.0002655962 -0.05959893 -0.11939411 -0.11660461 -0.08055757 -0.10982944 -0.0269262
0.038841274 -0.087261096 -0.046964217 -0.10510907 -0.09827059 0.0010444619 -0.09626179 -0.069631904
-0.084655836 0.012504848 0.03848036 0.0962869 -0.068961926 0.088310875 0.12519471 -0.05747185
-0.06849507 0.0571223 0.07768917 0.01871522 0.100985065 0.057437155 -0.038255077 0.10578296
-0.024671413 0.018775875 0.08489849 -0.06029024 -0.021644775 0.12193483 0.03775279 0.052672274
0.050483666 0.10937509 -0.12060724 0.101454936 -0.09804225 -0.029443849 0.12274514 -0.04031175
0.058681417 0.11392495 0.0047600893 -0.068735994 0.00095980574 -0.011444306 -0.12263317 0.023766996
0.10152298 -0.09849514 0.099087454 0.10114937 0.008467004 -0.11920881 -0.045945894 0.10731682
0.023920896 0.020133842 -0.059547953 0.0066276714 0.04979052 -0.058735494 -0.0822463 -0.10608753
-0.10661418 0.023057684 0.0024618357 -0.085089825 0.059531886 0.02567552 -0.08071895 0.073254295
0.07154568 0.116486914 0.059084687 0.024254566 0.09898539 0.010010446 -0.10690247 0.12364413
0.09170184 0.050196923 -0.12246354 -0.029513877 0.036135577 -0.064919196 -0.023942241 0.11851437
-0.096614614 -0.063144915 -0.007891752 0.10848317 0.098300576 -0.015811834 0.09243039 -0.006807084
0.09044404 -0.08117026 0.043002166 -0.089165024 0.021043478 -0.09323623 0.10235035 -0.007925538
-0.019991266 0.03179747 -0.11984693 -0.06392848 -0.05129289 -0.010040594 0.06226573 0.04057
-0.07001278 -0.112468444 0.054296646 -0.0090603735 0.05498461 -0.07050647 -0.023811635 0.005794472
0.028977048 -0.019335877 -0.09239056 0.032835755 -0.04711876 -0.066918716 -0.108223066 0.09919991
0.10136422 0.06898168 -0.009285435 -0.009567704 0.029542103 -0.08745544 -0.07061687 -0.09589278
0.10122297 0.064081594 0.11420542 -0.08489843 -0.06290228 0.005212164 0.08837964 0.03794572
-0.028274404 -0.049675692 0.07638397 -0.0651515 0.099361114 -0.083804935 0.10141854 0.082900405
-0.11453027 -0.025388397 0.07425121 0.052037183 -0.10422636 0.05688181 -0.041464344 0.10137284
-0.09858119 0.09941904 -0.0007083344 0.02018907 0.08614466 -0.105061024 -0.010688196 0.11068833
-0.036946796 -0.054851227 0.0794483 0.11528994 -0.035091303 0.05245647 0.0991419 -0.009782411
0.082104824 -0.10598519 -0.054805703 0.08689343 -0.09795498 -0.044706818 0.11067621 0.05865972
-0.03626082 0.076309025 0.0059649404 0.015936304 0.11597376 -0.10263948 0.0017687439 0.12115219
0.09431312 0.068913296 -0.08734546 -0.01736748 -0.106245756 0.05269791 0.08279086 -0.089846075
-0.07405893 -0.032653775 -0.018287066 -0.042154845 0.10846192 0.10721139 -0.05194253 -0.0972168
0.020435581 0.061119683 -0.022073189 0.008654166 0.09062629 -0.011743892 0.07272131 -0.11775279
0.08941298 0.07352497 0.007506393 0.013570088 -0.027009951 -0.071810864 -0.08099645 0.07281314
-0.043581713 0.03895646 0.015612675 0.05312228 0.028604748 -0.031560905 0.07118936 -0.084663525
-0.06673966 0.08161674 0.06776732 0.07283674 -0.109255545 0.059137613 0.12060755 -0.096180476
-0.07250628 0.098150566 0.030436935 0.07718136 -0.06676912 -0.10888844 0.006718839 0.08200865
00000000: dfa0 5abd b83f 8bb9 021e 74bd e684 f4bd
00000010: 66ce eebd 5efb a4bd 42ee e0bd 5694 dcbc
00000020: 0718 1f3d f2b5 b2bd 8d5d 40bd 6d43 d7bd
00000030: 1742 c9bd 53e6 883a e724 c5bd 2c9b 8ebd
00000040: 0a60 adbd 22e1 4c3c 959d 1d3d 1132 c53d
00000050: e93b 8dbd 55dc b43d 0b33 003e 9a67 6bbd
00000060: 2547 8cbd 13f9 693d 801b 9f3d a950 993c
00000070: 42d1 ce3d 3943 6b3d 5bb1 1cbd bda4 d83d
00000080: b41b cabc ddcf 993c 42df ad3d e6f2 76bd
00000090: 6250 b1bc f8b8 f93d aba2 1a3d e2be 573d
000000a0: f6c7 4e3d 0c00 e03d ee00 f7bd 9bc7 cf3d
000000b0: 60ca c8bd 3a34 f1bc ce61 fb3d ef1d 25bd
000000c0: ed5b 703d 7c51 e93d 86fa 9b3b 75c5 8cbd
000000d0: 799b 7b3a e680 3bbc 1927 fbbd 01b3 c23c
000000e0: 48eb cf3d d2b7 c9bd 5dee ca3d 6727 cf3d
000000f0: 30b9 0a3c c023 f4bd c331 3cbd ecc8 db3d
00000100: c1f5 c33c baef a43c 8ee8 73bd f02c d93b
00000110: 25f1 4b3d a194 70bd c070 a8bd 6b44 d9bd
00000120: 8958 dabd 78e3 bc3c c056 213b 9343 aebd
00000130: b5d7 733d 7855 d23c fa4f a5bd 5906 963d
00000140: 8b86 923d b190 ee3d c902 723d 83b1 c63c
00000150: dab8 ca3d db02 243c afef dabd 2239 fd3d
00000160: 2dce bb3d 4a9b 4d3d 2ace fabd 16c7 f1bc
00000170: e602 143d 5bf4 84bd 8522 c4bc a9b7 f23d
00000180: e2dd c5bd 1f52 81bd 684c 01bc 6d2c de3d
00000190: d051 c93d d287 81bc 254c bd3d f60d dfbb
000001a0: ba3a b93d 983c a6bd 0a23 303d 279c b6bd
000001b0: 5f63 ac3c a3f2 bebd 0f9d d13d 1eda 01bc
000001c0: b9c4 a3bc 103e 023d 4f72 f5bd efec 82bd
000001d0: 7e18 52bd 4e81 24bc 5a0a 7f3d ba2c 263d
000001e0: dc62 8fbd db55 e6bd 2966 5e3d f671 14bc
000001f0: 8b37 613d b265 90bd 9e10 c3bc 8edf bd3b
00000200: 4661 ed3c 4666 9ebc 4337 bdbd c97e 063d
00000210: 9aff 40bd ae0c 89bd 0ea4 ddbd 5329 cb3d
00000220: 0b98 cf3d 4446 8d3d f021 18bc dcc1 1cbc
00000230: 4802 f23c d61b b3bd 949f 90bd 6f63 c4bd
00000240: fd4d cf3d 363d 833d 88e4 e93d 3adf adbd
00000250: e9d2 80bd cdca aa3b 6200 b53d f96c 1b3d
00000260: b99f e7bc bd78 4bbd 336f 9c3d 266e 85bd
00000270: d77d cb3d eca1 abbd 86b4 cf3d b0c7 a93d
00000280: d98e eabd 54fb cfbc 0511 983d f124 553d
00000290: a174 d5bd e7fc 683d 84d6 29bd 909c cf3d
000002a0: efe4 c9bd 369c cb3d 84af 39ba 8c63 a53c
000002b0: 9d6c b03d 3c2a d7bd 8b1d 2fbc 90b0 e23d
000002c0: 8655 17bd aeab 60bd cab5 a23d 221d ec3d
000002d0: e6bb 0fbd 98dc 563d e90a cb3d 6846 20bc
000002e0: 9326 a83d c30e d9bd f27b 60bd 2ff5 b13d
000002f0: 9f9c c8bd 7f1e 37bd 35aa e23d 2d45 703d
00000300: 3a86 14bd e847 9c3d 8c75 c33b da8c 823c
00000310: a783 ed3d a634 d2bd 32d5 e73a a41e f83d
00000320: 3d27 c13d 6a22 8d3d 2de2 b2bd 3f46 8ebc
00000330: 6097 d9bd c4d9 573d 418e a93d 3801 b8bd
00000340: 35ac 97bd f7bf 05bd c2ce 95bc 8faa 2cbd
00000350: 4821 de3d a591 db3d b1c1 54bd 9a19 c7bd
00000360: 8568 a73c a258 7a3d d5d2 b4bc 34ca 0d3c
00000370: 479a b93d 7469 40bc e9ee 943d 6028 f1bd
00000380: 271e b73d 4294 963d 30f8 f53b 1355 5e3c
00000390: f943 ddbc 9311 93bd 77e1 a5bd 0e1f 953d
000003a0: bd82 32bd cf90 1f3d 4ecc 7f3c bf96 593d
000003b0: 8154 ea3c 0246 01bd bacb 913d 1264 adbd
000003c0: ceae 88bd ad26 a73d 98c9 8a3d 6e2b 953d
000003d0: 5fc1 dfbd 483a 723d 1701 f73d 45fa c4bd
000003e0: 2c7e 94bd 2a03 c93d e156 f93c 4311 9e3d
000003f0: 40be 88bd e700 dfbd b529 dc3b 27f4 a73d

fc2.bias f4 [128]
0.07103406 0.122944616 0.084977105 0.06521964 0.06653884 0.042814594 0.08788042 -0.029786829
-0.039699387 0.035435617 0.100288376 0.12092817 -0.11651593 -0.03710099 0.068335034 0.01636748
-0.054538187 -0.10170628 -0.07077098 -0.07313285 0.02568125 -0.058287457 -0.052242555 0.030086579
-0.113902956 -0.06257604 -0.031565946 0.10817289 0.082152896 -0.09484942 0.07519096 0.009727842
-0.018446786 0.1184061 -0.058283586 0.070293725 0.082305714 -0.104964904 0.080665566 0.12306726
0.116180606 -0.024803504 -0.089383624 -0.062321465 -0.011120879 0.12165943 -0.035731677 -0.038281184
0.023248836 0.03187139 -0.11236663 0.012409787 0.022325015 -0.04343517 0.07639867 0.0033941169
0.084382825 -0.0057453667 0.010079859 -0.038106702 -0.11774014 -0.029465849 -0.085674465 0.094478406
-0.059357785 -0.021117007 0.09808818 0.015239255 0.049029518 -0.026328754 -0.026033605 -0.05359743
-0.06431325 -0.07948462 0.024395086 -0.076959945 -0.09755173 -0.05135968 0.022785068 -0.11439793
0.023048619 -0.047627836 0.08061896 0.099992655 0.026368277 0.058783002 0.0054112496 0.1081582
-0.100240745 -0.08632911 -0.12452333 -0.10668704 0.058445245 -0.037627902 0.035978265 -0.076499626
0.09320186 -0.07777028 -0.06813794 0.019341571 0.112009674 0.0036600644 0.06467672 0.114474915
0.08155765 -0.019172555 -0.09730454 -0.034353193 -0.033410255 -0.01757562 0.027501415 -0.0878084
0.036564354 0.06864148 0.07403884 -0.105499595 -0.07528032 -0.06843704 -0.01571564 0.01044817
-0.067990094 -0.027535014 0.12461626 -0.019843768 -0.039054934 0.046939384 -0.041458696 -0.06753796
00000000: 4e7a 913d 63ca fb3d 7a08 ae3d e091 853d
00000010: 8445 883d 5b5e 2f3d a6fa b33d 8203 f4bc
00000020: d39b 22bd f024 113d fe63 cd3d 30a9 f73d
00000030: e79f eebd 35f7 17bd 3df3 8b3d 1815 863c
00000040: 6f63 5fbd 624b d0bd 60f0 90bd adc6 95bd
00000050: 7c61 d23c d4be 6ebd 4afc 55bd 2178 f63c
00000060: f445 e9bd de27 80bd 4b4b 01bd c089 dd3d
00000070: c73f a83d 6a40 c2bd b8fd 993d 8761 1f3c
00000080: b71d 97bc e67e f23d c5ba 6ebd 28f6 8f3d
00000090: e68f a83d d7f7 d6bd fd33 a53d b00a fc3d
000000a0: 19f0 ed3d b830 cbbc c30e b7bd cb44 7fbd
000000b0: 5934 36bc 9428 f93d 615b 12bd bbcc 1cbd
000000c0: 5874 be3c 938b 023d 7a20 e6bd 6b52 4b3c
000000d0: f3e2 b63c 14e9 31bd e876 9c3d d56f 5e3b
000000e0: e7d0 ac3d a143 bcbb fe25 253c c615 1cbd
000000f0: be21 f1bd 5d62 f1bc 1876 afbd e57d c13d
00000100: 2621 73bd 93fd acbc 75e2 c83d 11ae 793c
00000110: 2dd3 483d 66af d7bc 6d44 d5bc fb88 5bbd
00000120: aab6 83bd d5c8 a2bd 34d8 c73c 2d9d 9dbd
00000130: 34c9 c7bd 875e 52bd c0a7 ba3c 7649 eabd
00000140: 75d0 bc3c 6815 43bd 8e1b a53d f3c8 cc3d
00000150: 4902 d83c 72c6 703d da50 b13b 0c82 dd3d
00000160: 054b cdbd 51cd b0bd 1606 ffbd bc7e dabd
00000170: 4864 6f3d b71f 1abd f25d 133d d6ab 9cbd
00000180: 9ee0 be3d 0646 9fbd e78b 8bbd 3772 9e3c
00000190: 5465 e53d b1dd 6f3b 3a75 843d d371 ea3d
000001a0: b207 a73d c30f 9dbc 9a47 c7bd efb5 0cbd
000001b0: 31d9 08bd bffa 8fbc a64a e13c e4d4 b3bd
000001c0: 81c4 153d e793 8c3d ada1 973d 2c10 d8bd
000001d0: 922c 9abd b828 8cbd 16be 80bc cd2e 2b3c
000001e0: 643e 8bbd 1c91 e1bc cf36 ff3d 668f a2bc
000001f0: 11f8 1fbd 8343 403d 98d0 29bd 5851 8abd

fc3.weight f4 [128, 128]
0.017558033 -0.031942375 -0.058705095 0.06233434 -0.01634417 0.06900268 0.027367892 -0.0039407024
-0.035398148 -0.058372032 0.051626418 0.06263845 0.07606726 -0.04561491 0.03628398 0.07916935
-0.056534443 -0.06476196 -0.045073725 0.071861655 -0.04613883 -0.010897622 0.087790936 0.056583073
-0.06302648 0.075356685 -0.042312317 -0.08707861 0.025991509 -0.038553733 0.029788159 0.07343542
-0.021534402 -0.07274418 -0.046040263 0.06725959 -0.08812313 0.013260006 0.07299451 0.003023527
-0.06374111 -0.06958177 -0.019407785 0.009563214 0.017862147 0.07132492 -0.04709593 -0.017783524
-0.06019762 -0.081090376 0.07215867 0.014657801 0.06588151 -0.0018224926 -0.011328542 0.014301772
-0.030804511 -0.013203788 0.082740314 0.067990534 0.069172904 -0.07001807 0.06262855 0.005930253
0.03349364 -0.038763475 0.080122985 0.036783636 0.06770994 -0.06398972 -0.057128765 0.078289986
-0.086111836 -0.087490976 0.03807182 -0.008216054 -0.049387865 -0.0147821205 0.026710274 0.054507066
-0.07647244 0.06996333 0.045382775 -0.084518865 0.017798103 0.017852588 -0.02451528 -0.006482986
-0.007103831 0.056507185 0.013678281 -0.0060131443 0.07348046 -0.03932204 0.04696656 0.06163669
-0.034916546 0.0077940957 -0.0766294 0.02385011 0.012252239 0.05905849 0.07705949 0.0020420207
-0.0851409 -0.06376092 -0.08389763 0.041619677 -0.016736144 -0.042053644 0.064997084 -0.08772037
0.041818853 -0.058787216 0.080966614 -0.0020547912 -0.003387174 -0.045669552 0.061875716 -0.030994987
0.070629574 0.08285959 -0.0011696882 -0.041651767 0.023885354 -0.0075165816 -0.0010073271 -0.015684409
-0.0012336354 -0.061370827 -0.013630987 -0.004810006 0.0076089576 -0.05063657 -0.01534956 -0.071436785
0.08275645 -0.0140921865 0.02331508 0.004170209 0.06720257 0.012082562 -0.07980612 0.026453737
0.038678948 0.016340708 -0.05832637 -0.08858781 -0.06318368 0.0038745443 0.054885574 0.03927759
-0.06831593 0.044844355 -0.0017507432 0.007247731 0.049706742 -0.07005536 -0.088630065 -0.076423936
0.088647515 0.017989524 0.033351973 -0.064625785 0.08529359 -0.042899664 -0.072951265 -0.0010787968
-0.08864515 -0.008189725 0.06738762 0.027840162 -0.039799094 -0.06666926 -0.014972494 0.021764671
-0.06531469 -0.037398703 0.0703288 0.045546394 -0.032146312 -0.05216746 -0.043882664 0.07491387
0.0055842535 0.019599868 0.02942617 -0.03548094 -0.024669718 0.007517069 0.01202878 -0.08117428
-4.9241655e-05 -0.05562293 -0.04245437 0.05441916 -0.06801218 -0.028123675 0.07751818 0.043523796
0.013835949 -0.035039824 -0.047989357 -0.028460462 0.023609772 -0.07488077 0.00061572937 0.07823843
-0.0144131435 -0.084896974 0.049563013 -0.022452315 0.008886012 -0.048511382 0.049197365 0.06930722
0.0062617627 -0.013036264 -0.08191272 0.08820942 0.05986976 0.0028438976 -0.05936652 0.08734716
0.08319875 0.05255178 0.020476382 0.061844677 -0.041897148 -0.030429423 -0.0073433216 -0.024595346
-0.013382902 -0.020780476 0.07077444 0.029884016 0.016210724 0.07316013 -0.0012314356 0.03653646
-0.0052951104 -0.076612286 -0.04855017 0.08706926 0.08270876 -0.07499685 0.022267854 0.0342992
-0.06531407 0.071550876 0.08086743 0.030860905 0.060731854 -0.040600635 0.023373745 -0.044870805
00000000: ddd5 8f3c 02d6 02bd c174 70bd 4b52 7f3d
00000010: 35e4 85bc 4751 8d3d a132 e03c 0221 81bb
00000020: a6fd 10bd 8317 6fbd 3976 533d 9648 803d
00000030: 27c9 9b3d b3d6 3abd 839e 143d 8a23 a23d
00000040: a990 67bd eba1 84bd 3a9f 38bd 342c 933d
00000050: 12fc 3cbd f18b 32bc bccb b33d a7c3 673d
00000060: 0714 81bd 9b54 9a3d ae4f 2dbd 4556 b2bd
00000070: 25ec d43c 85ea 1dbd 4c06 f43c 4f65 963d
00000080: ea68 b0bc e7fa 94bd b794 3cbd 65bf 893d
00000090: e679 b4bd 7f40 593c 257e 953d 5e26 463b
000000a0: b38a 82bd e380 8ebd 13fd 9ebc 07af 1c3c
000000b0: a353 923c cd12 923d a9e7 40bd c1ae 91bc
000000c0: c891 76bd b612 a6bd edc7 933d 4627 703c
000000d0: e3ec 863d b4e0 eeba 599b 39bc fb51 6a3c
000000e0: be59 fcbc b354 58bc c173 a93d 9f3e 8b3d
000000f0: 86aa 8d3d a265 8fbd 6643 803d 9152 c23b
00000100: a130 093d 73c6 1ebd 8517 a43d 70aa 163d
00000110: 82ab 8a3d 0b0d 83bd daff 69bd 8056 a03d
00000120: 675b b0bd 782e b3bd 32f1 1b3d a19c 06bc
00000130: ee4a 4abd b530 72bc 81cf da3c cd42 5f3d
00000140: 959d 9cbd ef48 8f3d 4ae3 393d 3a18 adbd
00000150: 54cd 913c 973f 923c 45d4 c8bc 3a6f d4bb
00000160: 41c7 e8bb 1474 673d de1a 603c e909 c5bb
00000170: ec7c 963d 2610 21bd 0260 403d c176 7c3d
00000180: a704 0fbd 9d65 ff3b e0ef 9cbd 4e61 c33c
00000190: 9dbd 483c 51e7 713d 5ed1 9d3d 6cd3 053b
000001a0: 5a5e aebd 1695 82bd 85d2 abbd 6579 2a3d
000001b0: 3d1a 89bc 7140 2cbd 311d 853d bda6 b3bd
000001c0: 3f4a 2b3d ddca 70bd d3d1 a53d ada9 06bb
000001d0: 5afb 5dbb ff0f 3bbd 6471 7d3d 33e9 fdbc
000001e0: 3da6 903d 4ab2 a93d 3950 99ba 0b9b 2abd
000001f0: 38ab c33c a84d f6bb 4a08 84ba 977c 80bc
00000200: efb1 a1ba fa5f 7bbd 8154 5fbc 419d 9dbb
00000210: 9054 f93b 4b68 4fbd b97c 7bbc 734d 92bd
00000220: 377c a93d eae2 66bc 44ff be3c 40a6 883b
00000230: 80a1 893d f0f5 453c 6471 a3bd 82b5 d83c
00000240: d16d 1e3d f3dc 853c a2e7 6ebd 876d b5bd
00000250: 7266 81bd 11ec 7d3b b2cf 603d 8ae1 203d
00000260: 39e9 8bbd b7ae 373d 3279 e5ba 607e ed3b
00000270: 4c99 4b3d 2f79 8fbd ae83 b5bd 2784 9cbd
00000280: d48c b53d c45e 933c 149c 083d 865a 84bd
00000290: 68ae ae3d 8fb7 2fbd 7967 95bd 6a66 8dba
000002a0: 978b b5bd 322e 06bc 8502 8a3d 0d11 e43c
000002b0: 6004 23bd e589 88bd 314f 75bc d34b b23c
000002c0: b5c3 85bd 622f 19bd 8c08 903d db8e 3a3d
000002d0: daab 03bd 8cad 55bd 4fbe 33bd 716c 993d
000002e0: 1dfc b63b e78f a03c 270f f13c 7654 11bd
000002f0: 2618 cabc bf51 f63b 5c14 453c b33e a6bd
00000300: d388 4eb8 dfd4 63bd a2e4 2dbd a0e6 5e3d
00000310: f849 8bbd 9f63 e6bc dac1 9e3d 0246 323d
00000320: 2db0 623c eb85 0fbd 7d90 44bd ea25 e9bc
00000330: 4869 c13c 175b 99bd e668 213a 783b a03d
00000340: 1b25 6cbc 77de adbd 9602 4b3d ebed b7bc
00000350: a396 113c dfb3 46bd 2d83 493d f2f0 8d3d
00000360: 792f cd3b 0e96 55bc dbc1 a7bd 24a7 b43d
00000370: fe39 753d af60 3a3b 4f2a 73bd 11e3 b23d
00000380: 1b64 aa3d 8940 573d 16be a73c d850 7d3d
00000390: 589c 2bbd 2047 f9bc 3fa0 f0bb 2e7c c9bc
000003a0: f643 5bbc d13b aabc 31f2 903d 53cf f43c
000003b0: 5acc 843c fad4 953d 1f68 a1ba 41a7 153d
000003c0: 9b82 adbb e7e6 9cbd 8bdc 46bd 5e51 b23d
000003d0: 3663 a93d f397 99bd 136b b63c 517d 0c3d
000003e0: 62c3 85bd 4489 923d d39d a53d 02d0 fc3c
000003f0: f7c1 783d da4c 26bd 4c7a bf3c 73ca 37bd

fc3.bias f4 [128]
-0.05203248 -0.06839416 -0.0558969 0.013625012 0.086568885 -0.039737064 -0.05405068 -0.01660788
-0.08137401 0.06992151 -0.07552894 -0.072779566 0.02183213 0.044678655 -0.032418028 0.080216244
-0.063065566 0.05834828 -0.04510259 -0.007803717 -0.034074098 -0.010599201 -0.030546911 -0.06178248
-0.034761213 -0.06814134 0.0609985 -0.06276664 0.034502104 0.026826676 0.05315524 -0.034340035
-0.04488557 -0.04652917 -0.06378975 0.027034454 0.012467702 -0.050859135 -0.04957457 0.06471927
-0.008626394 -0.077069946 -0.008282768 -0.026654942 0.0051109116 -0.08380874 -0.044898104 0.0017036117
0.018415865 -0.0040723793 0.054477356 -0.027619518 -0.055688664 0.0022379574 -0.015244665 0.054851748
0.048561845 0.015890118 -0.07948825 -0.05521185 0.034858514 -0.05072695 0.027595596 0.059522316
0.04864997 0.06637184 0.058247477 -0.06794057 -0.06753624 0.009646939 0.08595649 -0.017981991
0.039438672 0.0024427413 0.025211362 0.07613284 -0.06386824 -0.0854586 0.008948595 -0.005486962
-0.07149884 -0.08278984 -0.028106019 0.07191057 0.06361396 0.053128287 0.034211516 -0.054371614
-0.06843054 0.06623702 -0.046427608 -0.005129333 -0.0023917572 0.08842778 0.022002682 -0.012520603
-0.029420264 -0.04913833 -0.07138452 0.08268422 -0.04640883 0.049703714 -0.05198934 0.028960802
-0.070937306 0.047679726 0.051402308 0.06909738 -0.010316501 0.017492425 -0.063198686 -0.016445268
-0.06187562 -0.06610763 0.07314078 0.00082283834 0.0020023058 -0.029014189 0.034529034 -0.07196165
0.060339253 -0.027345834 0.07456278 -0.02664877 0.026565608 0.040667064 0.07141501 -0.07940182
00000000: 0220 55bd 3d12 8cbd 26f4 64bd 713b 5f3c
00000010: 074b b13d 55c3 22bd 3f64 5dbd 400d 88bc
00000020: 6ba7 a6bd 0233 8f3d ebae 9abd 740d 95bd
00000030: 4cd9 b23c f700 373d c4c8 04bd 6a48 a43d
00000040: 8528 81bd 9bfe 6e3d 7ebd 38bd 53b6 ffbb
00000050: 4891 0bbd 45a8 2dbc 843d fabc a00f 7dbd
00000060: c661 0ebd b08d 8bbd 90d9 793d cc8b 80bd
00000070: 1452 0d3d 9ec3 db3c 4fb9 593d 23a8 0cbd
00000080: eed9 37bd 5f95 3ebd 33a4 82bd 5c77 dd3c
00000090: 5545 4c3c ab51 50bd b40e 4bbd 898b 843d
000000a0: b855 0dbc d9d6 9dbd 72b4 07bc 775b dabc
000000b0: 6f79 a73b eba3 abbd 13e7 37bd b94b df3a
000000c0: dedc 963c 9871 85bb a623 5f3d 5442 e2bc
000000d0: cc19 64bd b2aa 123b c2c4 79bc 3aac 603d
000000e0: c9e8 463d fe2b 823c bcca a2bd d225 62bd
000000f0: cdc7 0e3d 10c7 4fbd 2910 e23c accd 733d
00000100: 3145 473d f6ed 873d e894 6e3d 6d24 8bbd
00000110: 7150 8abd 320e 1e3c f509 b03d f84e 93bc
00000120: 728a 213d 6616 203b 0f88 ce3c 89eb 9b3d
00000130: 5acd 82bd eb04 afbd 219d 123c f9cb b3bb
00000140: fc6d 92bd b88d a9bd 983e e6bc d945 933d
00000150: 0948 823d 0c9d 593d 6021 0c3d c5b4 5ebd
00000160: 5025 8cbd 46a7 873d e02a 3ebd f713 a8bb
00000170: 07bf 1cbb a019 b53d f83e b43c 3723 4dbc
00000180: c402 f1bc 4645 49bd 0c32 92bd 5856 a93d
00000190: 2f17 3ebd 1f96 4b3d c6f2 54bd 343f ed3c
000001a0: 9447 91bd d14b 433d 3a8b 523d ed82 8d3d
000001b0: 8b06 29bc 464c 8f3c 506e 81bd 3ab8 86bc
000001c0: 4a71 7dbd 7063 87bd d5ca 953d bfb3 573a
000001d0: 1e39 033b 2aaf edbc 516e 0d3d a160 93bd
000001e0: 4b26 773d 5f04 e0bc 5fb4 983d 854e dabc
000001f0: 1ea0 d93c 8292 263d 0842 923d 6c9d a2bd

out.weight f4 [1, 128]
-0.026204774 -0.050787944 0.05877054 0.02302792 -0.015247042 -0.029421244 0.043693434 0.02783198
-0.07736863 -0.05476998 0.023287274 0.03975249 0.07930773 -0.01615922 -0.086957544 -0.05011998
-0.023317052 -0.043975204 -0.059616838 0.006018911 -0.080583535 0.06201718 -0.043719232 -0.022071099
-0.053209137 -0.08050533 0.064141236 0.07551503 0.03161566 0.06641268 -0.018492553 0.032788362
0.00016859199 0.033058345 -0.011454705 -0.029965552 -0.03478059 0.058262352 0.05311472 0.07910723
-0.021066781 -0.0041301553 0.06852748 0.050088987 0.0758227 -0.07255862 0.065235965 0.031945825
0.029999735 -0.02899069 -0.03786908 0.061094426 0.05245358 -0.071800716 -0.031320125 -0.07747832
-0.032997504 -0.028518755 0.0007800805 -0.03968199 0.038688224 -0.044253692 -0.07562925 -0.07186841
0.0026234726 0.022728585 0.0709879 0.026517803 0.017900687 0.077131525 -0.08473044 0.018912831
-0.08493866 0.014257777 0.023128873 -0.06613768 -0.07824401 0.0387536 0.010789572 0.053315274
0.07902712 0.056230385 0.017842427 0.033210177 0.023061162 0.015013257 0.06827606 0.03719955
0.05051686 -0.04322833 0.028168648 0.08701293 -0.017869972 -0.033707827 -0.062910005 0.06159943
0.084359184 0.08088065 0.03126913 0.021931367 -0.052661214 0.07768067 0.05932983 -0.078726575
-0.014608753 -0.010457006 -0.07018558 -0.047856543 -0.000107702814 0.06323341 0.040674 -0.053900573
-0.050886568 0.08702113 -0.003593226 -0.08587238 0.010488144 -0.06588198 -0.05432133 0.08698021
0.0062754015 -0.048396334 0.03353714 -0.04138506 -0.021266736 0.029853242 -0.056139637 0.0049005505
00000000: 65ab d6bc 0507 50bd 61b9 703d 0ca5 bc3c
00000010: bbce 79bc d204 f1bc e3f7 323d e4ff e33c
00000020: 7273 9ebd 7d56 60bd f4c4 be3c 82d3 223d
00000030: 176c a23d 5760 84bc cc16 b2bd 9c4a 4dbd
00000040: 6703 bfbc 581f 34bd c930 74bd 493a c53b
00000050: fb08 a5bd ba05 7e3d f012 33bd 73ce b4bc
00000060: d3f1 59bd fadf a4bd 7b5c 833d a0a7 9a3d
00000070: 6c7f 013d 5f03 883d b27d 97bc 174d 063d
00000080: 11c8 3039 3068 073d 84ac 3bbc 517a f5bc
00000090: 1876 0ebd 81a4 6e3d d28e 593d f902 a23d
000000a0: 3e94 acbc 4156 87bb 2358 8c3d 1c2a 4d3d
000000b0: ef48 9b3d 9d99 94bd 6f9a 853d a0d9 023d
000000c0: 01c2 f53c e27d edbc 9c1c 1bbd 263e 7a3d
000000d0: 91d9 563d 410c 93bd 8849 00bd f4ac 9ebd
000000e0: 6428 07bd 2aa0 e9bc 517e 4c3a 9589 22bd
000000f0: 8b77 1e3d 5c43 35bd 82e3 9abd bf2f 93bd
00000100: 91ee 2b3b 4c31 ba3c 1b62 913d dd3b d93c
00000110: 76a4 923c 22f7 9d3d 2787 adbd 15ef 9a3c
00000120: 52f4 adbd 7399 693c c378 bd3c 3173 87bd
00000130: 653e a0bd 18bc 1e3d bfc6 303c 1e61 5a3d
00000140: f8d8 a13d d551 663d 482a 923c 6507 083d
00000150: c3ea bc3c 2afa 753c 52d4 8b3d 8e5e 183d
00000160: c4ea 4e3d 3010 31bd f0c1 e63c d633 b23d
00000170: 0c64 92bc 3811 0abd f6d6 80bd af4f 7c3d
00000180: 82c4 ac3d c1a4 a53d 0f14 003d 69a9 b33c
00000190: 49b3 57bd 0b17 9f3d d603 733d 663b a1bd
000001a0: 8d59 6fbc dd53 2bbc 75bd 8fbd 3905 44bd
000001b0: 82de e1b8 8580 813d c899 263d d9c6 5cbd
000001c0: 6f6e 50bd 2238 b23d 547c 6bbb dcdd afbd
000001d0: 77d6 2b3c 22ed 86bd 0b80 5ebd ae22 b23d
000001e0: e2a1 cd3b 3c3b 46bd 3d5e 093d 6183 29bd
000001f0: 9437 aebc c98e f43c adf2 65bd cc94 a03b

batchn1.weight f4 [64]
1.0 0.9991886 0.9999805 1.0003202 0.99944144 1.000482 0.9998021 1.0
1.0000498 0.9995222 1.0000985 1.0001293 0.9999796 1.0000069 1.0000315 0.9996053
1.000033 1.0005575 1.0 1.0007774 1.0003866 1.0003357 0.9997692 1.0005132
0.99970126 1.0000234 1.0 0.9994106 1.0005561 1.0 0.9993062 0.99988407
1.0005922 1.0000374 0.99975216 1.000695 0.9996881 0.99952406 1.0002733 0.9994756
0.99940425 1.0000437 1.0006003 0.9999814 0.9996653 1.0001209 1.000446 0.9999633
0.99964553 1.0000265 0.9996981 0.9992356 1.0003667 0.9996363 0.9995173 1.0003153
1.0003377 1.0 1.0007663 1.000458 1.0002829 0.9998157 1.0000994 1.0001165
00000000: 0000 803f d3ca 7f3f b9fe 7f3f 7e0a 803f
00000010: 65db 7f3f cb0f 803f 08f3 7f3f 0000 803f
00000020: a201 803f b0e0 7f3f 3a03 803f 3d04 803f
00000030: aafe 7f3f 3a00 803f 0801 803f 22e6 7f3f
00000040: 1501 803f 4512 803f 0000 803f 7919 803f
00000050: ab0c 803f 000b 803f e0f0 7f3f d110 803f
00000060: 6cec 7f3f c400 803f 0000 803f 60d9 7f3f
00000070: 3912 803f 0000 803f 88d2 7f3f 67f8 7f3f
00000080: 6813 803f 3a01 803f c2ef 7f3f c616 803f
00000090: 8feb 7f3f cfe0 7f3f f508 803f a2dd 7f3f
000000a0: f5d8 7f3f 6f01 803f ac13 803f c8fe 7f3f
000000b0: 11ea 7f3f f603 803f 9d0e 803f 98fd 7f3f
000000c0: c5e8 7f3f de00 803f 37ec 7f3f e7cd 7f3f
000000d0: 040c 803f 2ae8 7f3f 5ee0 7f3f 550a 803f
000000e0: 110b 803f 0000 803f 1c19 803f 020f 803f
000000f0: 4509 803f ecf3 7f3f 4203 803f d103 803f

batchn1.bias f4 [64]
0.00053792866 0.00011719846 0.0005398414 -0.00021414833 -2.9256867e-06 -4.0476763e-05 0.00018560902 6.0533323e-05
0.0002896895 0.0003373288 5.4647968e-05 -2.6785126e-05 -0.00038836626 0.0001445717 -0.00046917447 0.00012112675
-0.00036907886 0.00013201273 -0.000102599675 -6.074316e-05 8.182642e-05 0.00050641457 -0.00012863208 -2.8229773e-05
0.0003929973 0.00022571026 0.0004843056 0.0005044547 -0.0003711259 0.00024096474 6.768278e-05 -3.3067126e-06
-0.00040982765 -0.00016955682 6.8045985e-05 2.372899e-05 -0.00010003684 0.00028467723 9.436694e-05 -0.00020323107
0.00033107787 0.0002966307 -0.00017799238 -0.00026817224 -0.00013741024 -6.67125e-05 9.101508e-05 0.00030729102
-3.9648217e-05 -0.00019670313 -0.0003729873 0.0002663423 -0.000268183 0.00023608592 0.00012559438 0.00014654573
-0.00015761425 -0.0004299826 -0.0004613816 -0.00027597143 0.000103274906 0.00017273935 -9.5637e-06 0.00011994446
00000000: c803 0d3a 72c8 f538 2584 0d3a 018d 60b9
00000010: ea56 44b6 98c5 29b8 0ba0 4239 29e5 7d38
00000020: 77e1 9739 81db b039 cf35 6538 9fb0 e0b7
00000030: a39d cbb9 2c98 1739 88fb f5b9 6e05 fe38
00000040: ed80 c1b9 e66c 0a39 c82a d7b8 79c6 7eb8
00000050: 3a9a ab38 e8c0 043a 69e1 06b9 face ecb7
00000060: 340b ce39 a3ac 6c39 66ea fd39 623d 043a
00000070: ad93 c2b9 7bab 7c39 eaf0 8d38 e4e8 5db6
00000080: 23de d6b9 10cb 31b9 e9b3 8e38 9e0d c737
00000090: dfca d1b8 bb40 9539 dde6 c538 6d1a 55b9
000000a0: 8594 ad39 1985 9b39 77a3 3ab9 7899 8cb9
000000b0: c815 10b9 00e8 8bb8 59df be38 e71b a139
000000c0: f34b 26b8 1842 4eb9 828d c3b9 dca3 8b39
000000d0: ea9a 8cb9 d58d 7739 fcb1 0339 12aa 1939
000000e0: 4145 25b9 4a6f e1b9 97e5 f1b9 42b0 90b9
000000f0: 4b95 d838 5e21 3539 c773 20b7 b18a fb38

batchn1.running_mean f4 [64]
0.0 44.13563 0.045423232 1.8521401 26.576044 0.59791476 3.0804214 0.0
30.31096 4.471881 45.509388 1.0914515 125.130806 98.32408 0.09191492 2.0046456
17.423832 11.59642 0.0 77.76294 26.427462 89.331604 25.459196 12.642342
0.08517959 30.123016 0.0 154.07693 122.48473 0.0 124.507 0.9965726
53.570595 0.074361175 160.03757 23.36402 42.54276 61.436695 58.124516 25.255966
49.444534 5.177752 3.1630921 74.39489 23.023836 0.03948407 5.245531 57.930737
5.9570785 99.44865 30.609306 124.16428 13.445532 95.92337 2.8006752 108.92859
40.30103 0.0 6.528208 11.700303 73.273125 7.705426 20.349237 122.33981
00000000: 0000 0000 e38a 3042 b60d 3a3d ed12 ed3f
00000010: bd9b d441 f110 193f a025 4540 0000 0000
00000020: d97c f241 a619 8f40 9d09 3642 afb4 8b3f
00000030: f942 fa42 eea5 c442 e43d bc3d 1d4c 0040
00000040: 0264 8b41 f08a 3941 0000 0000 a086 9b42
00000050: 716b d341 c8a9 b242 6fac cb41 0847 4a41
00000060: a372 ae3d f0fb f041 0000 0000 b213 1a43
00000070: 2ff8 f442 0000 0000 9603 f942 621f 7f3f
00000080: 4a48 5642 ac4a 983d 9e09 2043 83e9 ba41
00000090: c92b 2a42 2dbf 7542 817f 6842 380c ca41
000000a0: 34c7 4542 25b0 a540 1a70 4a40 2fca 9442
000000b0: d130 b841 0cba 213d 64db a740 13b9 6742
000000c0: 63a0 be40 b5e5 c642 dcdf f441 1d54 f842
000000d0: e620 5741 c4d8 bf42 433e 3340 70db d942
000000e0: 4134 2142 0000 0000 14e7 d040 7134 3b41
000000f0: d78b 9242 da92 f640 3dcb a241 fcad f442

batchn1.running_var f4 [64]
0.005153768 3049.9844 0.7229126 32.293915 1877.2051 12.787209 108.54296 0.005153768
909.67096 440.9672 1832.17 12.277038 6232.667 7455.2754 1.0810378 33.45098
270.9627 497.33554 0.005153768 7095.0884 2166.2744 1218.9258 1488.1409 234.80174
0.7120872 885.44666 0.005153768 7067.6885 3253.0396 0.005153768 7078.5195 27.707956
1522.577 0.8243683 7890.159 1644.938 2561.216 1283.0292 621.8813 546.3313
2892.0989 365.79642 119.11345 2841.2593 464.53308 0.63387096 76.16497 1679.2148
73.04278 7115.824 397.6518 3644.6553 525.444 4830.473 164.17342 7891.94
1232.0464 0.005153768 525.0485 32.48828 3132.457 127.30663 853.3915 6026.8115
00000000: f1e0 a83b c09f 3e45 cd10 393f f82c 0142
00000010: 90a6 ea44 6898 4c41 ff15 d942 f1e0 a83b
00000020: f16a 6344 cd7b dc43 7105 e544 bf6e 4441
00000030: 56c5 c245 34fa e845 725f 8a3f cecd 0542
00000040: 3a7b 8743 f3aa f843 f1e0 a83b b5b8 dd45
00000050: 6464 0745 a05d 9844 8204 ba44 3fcd 6a43
00000060: 594b 363f 965c 5d44 f1e0 a83b 82dd dc45
00000070: a250 4b45 f1e0 a83b 2834 dd45 e5a9 dd41
00000080: 7752 be44 cd09 533f 4691 f645 049e cd44
00000090: 7513 2045 ef60 a044 6778 1b44 3495 0844
000000a0: 95c1 3445 f1e5 b643 163a ee42 2694 3145
000000b0: 3c44 e843 5e45 223f 7754 9842 e0e6 d144
000000c0: e715 9242 985e de45 6ed3 c643 7cca 6345
000000d0: 6a5c 0344 c9f3 9645 652c 2443 859f f645
000000e0: 7c01 9a44 f1e0 a83b 1b43 0344 00f4 0142
000000f0: 50c7 4345 ff9c fe42 0e59 5544 7e56 bc45

batchn2.weight f4 [128]
0.9992773 1.0000296 1.0002849 1.0002733 1.0000136 0.9990963 0.9998252 1.0005412
1.0004238 0.99956024 1.0003979 0.99917287 1.0006022 0.99994045 0.99986184 1.0000073
1.0007899 1.0008001 0.99955297 1.0006809 0.99930066 1.0003909 0.9993892 1.0002908
0.9996274 1.0004214 1.0002694 1.0002999 1.0001286 0.9993392 0.99922377 1.0005829
1.0006388 0.9992972 0.9992075 0.99939114 0.9997422 0.99943095 1.0001435 0.9997011
1.0001197 1.0001285 1.0002778 0.99940383 1.0004193 0.99915326 1.0008448 0.99978167
1.0005277 0.9999775 0.9992102 1.0007219 1.00074 0.99971724 0.9996373 0.9992136
0.9999631 1.0000906 1.0005343 1.0001478 0.99985147 0.99973464 0.9994329 1.0008211
1.0005536 0.99978495 0.9996787 1.0005146 1.000019 0.999196 0.999728 1.0002389
0.9991015 0.99944603 1.0001343 1.0006788 0.99988365 1.0000148 1.0006355 0.9995208
0.9991232 1.0005889 1.0005665 0.9993774 0.9993229 0.9994766 1.0004942 1.0004714
1.0002595 0.9992477 0.9999481 1.0001334 0.99924994 0.9993562 1.0001847 1.0003002
0.9991968 0.9991979 1.0004504 0.9992279 0.9995129 0.9993222 0.9996739 1.0001801
0.99935687 0.99978596 1.0006814 0.9996285 0.99951625 1.00038 1.0001853 0.99974704
0.99984235 0.9998111 1.0007915 0.9999599 0.9993439 1.0005056 0.9995283 1.0005286
1.0001935 0.99983984 0.99988455 0.99928427 0.99932617 0.9995089 0.9993947 1.0005589
00000000: a3d0 7f3f f800 803f 5609 803f f508 803f
00000010: 7200 803f c6c4 7f3f 8bf4 7f3f bc11 803f
00000020: e30d 803f 2ee3 7f3f 0a0d 803f cbc9 7f3f
00000030: bc13 803f 19fc 7f3f f2f6 7f3f 3d00 803f
00000040: e219 803f 381a 803f b4e2 7f3f 5016 803f
00000050: 2bd2 7f3f cf0c 803f f8d7 7f3f 8709 803f
00000060: 95e7 7f3f cf0d 803f d408 803f d409 803f
00000070: 3704 803f b2d4 7f3f 21cd 7f3f 1a13 803f
00000080: ef14 803f f1d1 7f3f 10cc 7f3f 19d8 7f3f
00000090: 1bef 7f3f b5da 7f3f b404 803f 69ec 7f3f
000000a0: ec03 803f 3604 803f 1a09 803f eed8 7f3f
000000b0: bd0d 803f 82c8 7f3f af1b 803f b1f1 7f3f
000000c0: 4b11 803f 87fe 7f3f 3dcc 7f3f a817 803f
000000d0: 4018 803f 78ed 7f3f 3be8 7f3f 76cc 7f3f
000000e0: 95fd 7f3f f802 803f 8211 803f d804 803f
000000f0: 44f6 7f3f 9cee 7f3f d6da 7f3f e81a 803f
00000100: 2412 803f e8f1 7f3f f1ea 7f3f dd10 803f
00000110: 9f00 803f 4fcb 7f3f 2dee 7f3f d407 803f
00000120: 1ec5 7f3f b2db 7f3f 6704 803f 3e16 803f
00000130: 60f8 7f3f 7c00 803f d314 803f 98e0 7f3f
00000140: 8ac6 7f3f 4c13 803f 9012 803f 33d7 7f3f
00000150: a0d3 7f3f b3dd 7f3f 3210 803f 720f 803f
00000160: 8108 803f b3ce 7f3f 99fc 7f3f 5f04 803f
00000170: d8ce 7f3f cfd5 7f3f 0d06 803f d609 803f
00000180: 5dcb 7f3f 6fcb 7f3f c20e 803f 66cd 7f3f
00000190: 14e0 7f3f 94d3 7f3f a1ea 7f3f e705 803f
000001a0: dad5 7f3f f9f1 7f3f 5416 803f a7e7 7f3f
000001b0: 4ce0 7f3f 740c 803f 1206 803f 6cef 7f3f
000001c0: abf5 7f3f 9ff3 7f3f f019 803f 5ffd 7f3f
000001d0: 00d5 7f3f 9110 803f 16e1 7f3f 5211 803f
000001e0: 5706 803f 81f5 7f3f 6ff8 7f3f 18d1 7f3f
000001f0: d7d3 7f3f d1df 7f3f 55d8 7f3f 5012 803f

batchn2.bias f4 [128]
-0.00087723194 0.0009797968 -0.0009581925 4.6381232e-05 -0.0009797855 0.0009689458 0.0009850366 -0.0009972346
-0.0009661431 0.0009371713 0.0010057342 -0.0006202333 -0.0010035861 -0.0009536131 -0.0009789146 -0.0009595898
-0.00097126473 -0.00096894556 -0.0009831993 -0.0009386687 0.00089313637 -0.00089038437 -0.00096997555 -0.00097511004
-0.00089045404 0.000945758 -0.0009573778 0.0009263578 -0.0009630159 0.00093707885 -0.000948664 -0.0009288278
0.00031748877 0.0009747935 0.0002095398 0.0008991759 -0.0009852706 0.0010025654 0.0009870509 -0.00096007047
-0.0008318256 -0.00095593015 -0.000984338 -0.0008066021 -0.0009692608 0.0009869384 -0.0007044245 0.0009707009
-0.0009678565 0.0009484315 0.0009822921 6.3625106e-05 0.00056769274 0.0009957792 -0.0009832991 -0.0009460641
-0.0009886913 0.00089614897 -0.0004882936 -0.00087769044 0.00019787483 -0.001000472 -0.00095775974 -0.00084612396
-0.0008975207 -0.00093003776 -0.00039256344 0.00095718884 -0.00087085785 -0.0009503767 0.0009168374 -4.840248e-05
0.0009683067 0.0009698781 -0.00088795234 -0.00036324287 -0.0009855748 -0.0009729164 -0.0009526395 0.00089960545
0.00094831275 -0.0009343884 -0.0009631911 -0.0009587466 -0.0009477096 -0.000996102 0.0009790534 -0.0009865956
0.00090985396 -0.0006736651 0.0009400359 0.000989965 0.00094635214 0.0009730722 0.0009511405 0.00095385994
0.0008656863 0.0009981843 -0.0005090238 0.000979494 0.00097533135 0.0008543914 -0.0009796019 -0.0009509704
0.0009931548 -0.00096366106 -0.00096426235 -0.0009771968 -0.0009800596 -0.0009382986 -0.0009792747 -1.1472506e-05
-0.00037886846 0.0009607979 0.00092438067 0.00036505255 0.0009822305 -0.0008986399 0.0009696352 0.00070567615
0.0006516303 0.0009593542 -0.0009798809 -0.00092603825 -0.000772962 -0.00029957414 0.0009095203 -0.0009450419
00000000: 0af6 65ba 866c 803a 362f 7bba 7889 4238
00000010: 256c 80ba da00 7e3a 581c 813a a4b5 82ba
00000020: c444 7dba 80ac 753a d7d2 833a 2797 22ba
00000030: c38a 83ba e4fb 79ba ec4e 80ba fb8c 7bba
00000040: 799c 7eba d600 7eba b2de 80ba fd10 76ba
00000050: 5e21 6a3a af68 69ba f545 7eba 879e 7fba
00000060: 5c6d 69ba bfec 773a 89f8 7aba d2d6 723a
00000070: e772 7cba 4ca6 753a c3af 78ba 947c 73ba
00000080: 9f74 a639 4989 7f3a e9b7 5b39 acb6 6b3a
00000090: 3224 81ba 8368 833a ef5f 813a 3dad 7bba
000000a0: df0e 5aba 6397 7aba e704 81ba 2772 53ba
000000b0: fe15 7eba 285c 813a 21a9 38ba a276 7e3a
000000c0: c0b7 7dba 29a0 783a 41c0 803a 786e 8538
000000d0: 37d1 143a ce84 823a 0be2 80ba 4901 78ba
000000e0: fa96 81ba 8aeb 6a3a d400 00ba cf14 66ba
000000f0: 9f7c 4f39 4522 83ba 2b12 7bba 6bce 5dba
00000100: 9847 6bba c7cd 73ba f9d0 cdb9 dbeb 7a3a
00000110: 484a 64ba b322 79ba eb57 703a c403 4bb8
00000120: f6d5 7d3a 6b3f 7e3a 79c5 68ba a271 beb9
00000130: 672e 81ba 500b 7fba 8eba 79ba 80d3 6b3a
00000140: 3198 783a bef1 74ba a97e 7cba 6554 7bba
00000150: b76f 78ba a38f 82ba 9553 803a a850 81ba
00000160: 4483 6e3a e698 30ba be6c 763a b7c1 813a
00000170: 9e14 783a c515 7f3a f555 793a 750c 7a3a
00000180: 39ef 623a 82d5 823a 0270 05ba 5d62 803a
00000190: 61ad 7f3a 3cf9 5f3a fc65 80ba 8b4a 79ba
000001a0: bf2c 823a 339e 7cba 8dc6 7cba 4915 80ba
000001b0: 5875 80ba 27f8 75ba 025b 80ba 0a7a 40b7
000001c0: dda2 c6b9 0ede 7b3a 2352 723a 8664 bf39
000001d0: 30be 803a b492 6bba 1e2f 7e3a 20fd 383a
000001e0: 2bd2 2a3a 2c7d 7b3a 596f 80ba 60c1 72ba
000001f0: 9aa0 4aba 2910 9db9 e06c 6e3a b0bc 77ba

batchn2.running_mean f4 [128]
0.2685181 0.28193393 0.2744798 0.24774161 0.16650398 0.2549129 0.21850841 0.14776418
0.103681035 0.23849723 0.22836939 0.3046137 0.17323218 0.13747595 0.20148532 0.17645486
0.13332635 0.20414211 0.28978276 0.13998961 0.295033 0.10770035 0.112146966 0.14869991
0.12830207 0.21106693 0.2139328 0.18932512 0.19612557 0.17258984 0.21005574 0.15978543
0.15004185 0.40919602 0.1184871 0.1861216 0.2782516 0.1260966 0.30253318 0.19275604
0.28387567 0.16564721 0.15506418 0.2460126 0.2160561 0.21435893 0.27671793 0.11450024
0.21758509 0.28846592 0.13122743 0.24148238 0.19625561 0.22946067 0.22436392 0.1860222
0.23586448 0.15471926 0.21039942 0.16559942 0.11605762 0.16036116 0.33172104 0.32479748
0.15341868 0.21984485 0.2121164 0.25915542 0.35242555 0.29306346 0.13583374 0.36181358
0.16642849 0.13454856 0.21304737 0.24076885 0.121625274 0.377238 0.18946776 0.10308112
0.2062859 0.11487668 0.15935893 0.22944205 0.21371777 0.28359303 0.20593143 0.25316742
0.11751472 0.11419301 0.108430825 0.102978356 0.22600552 0.15635541 0.24223414 0.15951687
0.26968098 0.16034833 0.34412542 0.2333054 0.2288803 0.19505595 0.22072633 0.26389506
0.20928839 0.1588311 0.24447073 0.11012839 0.3003037 0.1354686 0.21957198 0.088882804
0.32814315 0.19629116 0.29765806 0.11188131 0.12727913 0.09235024 0.13824657 0.18018119
0.09631502 0.2725624 0.34369686 0.14804116 0.1686553 0.2532086 0.3523705 0.1832476
00000000: 347b 893e a559 903e 9e88 8c3e faaf 7d3e
00000010: 0580 2a3e f283 823e abc0 5f3e 7e4f 173e
00000020: b956 d43d 9e38 743e aad9 693e 54f6 9b3e
00000030: c763 313e 7fc6 0c3e 2b52 4e3e 95b0 343e
00000040: b486 083e a10a 513e 685e 943e 7059 0f3e
00000050: 910e 973e 0092 dc3d 4fad e53d ca44 183e
00000060: 9e61 033e ee21 583e 3311 5b3e 72de 413e
00000070: 24d5 483e 64bb 303e da18 573e cb9e 233e
00000080: 92a4 193e 2482 d13e 5da9 f23d a996 3e3e
00000090: fe76 8e3e 781f 013e a1e5 9a3e d761 453e
000000a0: 2758 913e 6c9f 293e 25c9 1e3e baea 7b3e
000000b0: cf3d 5d3e e880 5b3e f9ad 8d3e 1a7f ea3d
000000c0: a0ce 5e3e ceb1 933e 7c60 063e 2847 773e
000000d0: 3bf7 483e bdf7 6a3e a8bf 653e 9b7c 3e3e
000000e0: 7586 713e ba6e 1e3e f272 573e e592 293e
000000f0: 9eaf ed3d b735 243e 57d7 a93e db4b a63e
00000100: c919 1d3e 021f 613e 0b35 593e 05b0 843e
00000110: 1f71 b43e 6a0c 963e 0018 0b3e a13f b93e
00000120: 3b6c 2a3e 19c7 093e 1729 5a3e 1c8c 763e
00000130: ac16 f93d 5725 c13e d603 423e 321c d33d
00000140: 9c3c 533e 7744 eb3d fd2e 233e dbf2 6a3e
00000150: d5d8 5a3e 1b33 913e b0df 523e 299f 813e
00000160: 8fab f03d 06de e93d fb10 de3d 51e6 d23d
00000170: fe6d 673e a21b 203e 3a0c 783e 6458 233e
00000180: a013 8a3e 5a32 243e 3531 b03e 9ce7 6e3e
00000190: 995f 6a3e bfbc 473e 1506 623e 411d 873e
000001a0: b24f 563e 9fa4 223e 8956 7a3e fe8a e13d
000001b0: 68c1 993e 48b8 0a3e 7ad7 603e 3008 b63d
000001c0: 6102 a83e 8d00 493e a366 983e 0722 e53d
000001d0: 7655 023e 1f22 bd3d 8290 0d3e 6b81 383e
000001e0: cf40 c53d 4d8d 8b3e 09f9 af3e 1a98 173e
000001f0: fab3 2c3e 8fa4 813e e869 b43e 42a5 3b3e

batchn2.running_var f4 [128]
0.1974759 0.22462511 0.24146326 0.2212072 0.07555806 0.22224148 0.08101683 0.117789246
0.066898644 0.14960347 0.11069752 0.3149167 0.15091681 0.054586455 0.10075512 0.05515859
0.06586503 0.08041275 0.13113444 0.07227664 0.34325713 0.043843556 0.03696316 0.086373925
0.07901537 0.10223808 0.2320242 0.08169597 0.06515541 0.07342093 0.08640734 0.061242685
0.04855117 0.11740723 0.060395684 0.07757199 0.20294282 0.033425167 0.1279995 0.08763561
0.22505808 0.05479601 0.16004255 0.091792256 0.18369274 0.09780262 0.33313376 0.10063908
0.09510019 0.18695627 0.14556941 0.18603083 0.11518211 0.14299624 0.07914341 0.046381142
0.116915695 0.07740642 0.17754349 0.095960066 0.072327465 0.060598586 0.15935394 0.12404674
0.1390512 0.19486277 0.08787299 0.090154864 0.1460262 0.3640175 0.10301945 0.13202526
0.049925826 0.054359272 0.18850324 0.25943562 0.09218384 0.26992434 0.08813049 0.04280576
0.16317801 0.07087142 0.05312948 0.08817464 0.0706349 0.07035037 0.05526772 0.15299532
0.052391134 0.028852751 0.13320747 0.043744426 0.19157836 0.057354804 0.18570776 0.059000243
0.15545951 0.061107524 0.19217125 0.08563547 0.14317176 0.10832992 0.18270856 0.17713489
0.11695049 0.06248291 0.2173429 0.032631215 0.39249897 0.071645476 0.20070188 0.026071081
0.3610087 0.15277846 0.19754213 0.03891883 0.076166175 0.038980234 0.07934158 0.059766572
0.039915454 0.35399815 0.11294707 0.043064013 0.061870642 0.06351282 0.3881718 0.1105469
00000000: 1f37 4a3e 2004 663e 2542 773e 2484 623e
00000010: 2fbe 9a3d 4593 633e 27ec a53d 7d3b f13d
00000020: 2802 893d a731 193e 62b5 e23d c33c a13e
00000030: f089 1a3e 0c96 5f3d b358 ce3d f9ed 613d
00000040: 3fe4 863d 71af a43d 1b48 063e c605 943d
00000050: 66bf af3e 4d95 333d af66 173d d0e4 b03d
00000060: cfd2 a13d 3362 d13d c097 6d3e 3750 a73d
00000070: 3370 853d b65d 963d 55f6 b03d 9cd9 7a3d
00000080: 97dd 463d 3473 f03d 7761 773d 10de 9e3d
00000090: 3ed0 4f3e d4e8 083d 4d12 033e 4c7a b33d
000000a0: a075 663e c871 603d 32e2 233e 94fd bb3d
000000b0: f319 3c3e bd4c c83d 8290 aa3e dd1b ce3d
000000c0: e3c3 c23d 7771 3f3e 2610 153e de7e 3e3e
000000d0: 99e4 eb3d 9b6d 123e f115 a23d 27fa 3d3d
000000e0: 7f71 ef3d 4287 9e3d f6cd 353e b686 c43d
000000f0: 6c20 943d 3936 783d ae2d 233e 380c fe3d
00000100: 7063 0e3e 1b8a 473e c1f6 b33d 1da3 b83d
00000110: e487 153e 8060 ba3e ddfb d23d a131 073e
00000120: 067f 4c3d d4a7 5e3d fe06 413e bfd4 843e
00000130: e2ca bc3d 8633 8a3e c27d b43d 1855 2f3d
00000140: 2318 273e 0925 913d 4c9e 593d e894 b43d
00000150: 08a9 903d db13 903d 6860 623d ceaa 1c3e
00000160: 1698 563d 9b5c ec3c 8a67 083e 5b2d 333d
00000170: 1e2d 443e dfec 6a3d 2d2a 3e3e 3daa 713d
00000180: c730 1f3e e24b 7a3d 8ac8 443e a661 af3d
00000190: 9e9b 123e 14dc dd3d f417 3b3e d962 353e
000001a0: bd83 ef3d 14ee 7f3d 238f 5e3e 4fa8 053d
000001b0: a0f5 c83e ddba 923d cb84 4d3e 0593 d53c
000001c0: 22d6 b83e f571 1c3e 7c48 4a3e 5a69 1f3d
000001d0: 03fd 9b3d bda9 1f3d d77d a23d cbcd 743d
000001e0: 637e 233d 3f3f b53e cb50 e73d e463 303d
000001f0: 126c 7d3d 0213 823d 74be c63e 6a66 e23d
