models/dnn.pth (torch, 111825 bytes, 15 tensors)

fc1.weight f4 [64, 10]
000000 13 37 d6 bd 2e ad 68 3c 9f 4e 47 3e a0 ee 91 bd
       -0.10459723 0.0142014455 0.19463585 -0.07125592
000010 42 9d 60 bd de 67 cb 3c 38 8e 4f 3e 47 e0 d6 bd
       -0.054837473 0.024829801 0.20269096 -0.10491996
000020 e3 58 7d be 43 0c a2 3e 98 85 de 3d fe 91 07 3e
       -0.24740939 0.3164998 0.10865325 0.13239285
000030 8a 8d ac bd eb 14 02 bc d5 99 1a 3c 94 59 a9 3e
       -0.08425434 -0.007939558 0.0094360905 0.33076155
000040 a8 dc fd 3d 4f 55 9f 3d 97 53 01 be 7f 3b 98 3e
       0.123956025 0.07779943 -0.12629543 0.29732892
000050 24 2c 84 bd 6e 7e 95 3c 48 b8 21 3c b8 7f c3 bd
       -0.06453732 0.018248763 0.009870596 -0.09545845
000060 f2 15 72 3c 43 94 cf be a4 78 88 3e d7 13 ae 3e
       0.01477574 -0.40542802 0.26654541 0.33999512
000070 6b 84 f8 3c 94 e5 bc be 1a df 0c be ff bc 21 3c
       0.03033658 -0.36893904 -0.13756981 0.00987172
000080 09 3c 0c be c3 8e f1 bd 40 90 56 be c6 c8 0c 3e
       -0.13694777 -0.11794808 -0.20953465 0.13748464
000090 4f a7 66 be f0 6c 13 be ed d7 90 3d d1 e9 4a be
       -0.2252476 -0.14397025 0.070724346 -0.19815756
0000a0 9b ed 56 3e 87 4c 7e 3e ac 0b 46 be 4d 5d 8e 3d
       0.20989077 0.2483388 -0.1934039 0.069513895
0000b0 66 34 04 bf fa 0f 1c be 8d 14 6f be f3 80 e1 3d
       -0.51642454 -0.1524047 -0.23347683 0.11010923
0000c0 fa 27 ba ba 8d f8 92 3e 3e 8d 20 3c 76 8f 6e be
       -0.0014202588 0.28705254 0.0097993 -0.23296914
0000d0 2f 10 1c be 1c 80 78 bd fd e1 61 be cb c5 73 3e
       -0.15240549 -0.06066905 -0.22058864 0.23805921
0000e0 0e 08 34 3e 65 71 0d bd d6 0e aa bd 92 87 4b be
       0.17581198 -0.03453197 -0.08303611 -0.19875935
0000f0 f4 d9 81 be 38 41 84 be b5 93 80 3e d4 75 3b be
       -0.25361598 -0.25831008 0.25112692 -0.18306667
000100 1d 62 48 bd b8 da 62 3e 8f 45 90 be 9e 58 97 be
       -0.048921693 0.22153747 -0.2817807 -0.29559797
000110 79 9b 0d 3e d4 f8 a8 3d f0 49 78 3e c5 97 07 3e
       0.1382884 0.08250585 0.24246955 0.13241489
000120 74 5b 46 bd 48 23 42 3f 05 a9 27 bf 5f 1a 17 be
       -0.04842706 0.75835085 -0.6549228 -0.14756154
000130 8e 4b 96 3e 64 96 3e bd 06 57 46 be 61 8a 72 3f
       0.2935452 -0.046530142 -0.19369134 0.947424
000140 64 1d 0c be 5e 3b 4e be c5 f4 3f 3e 4f 9c ee 3d
       -0.13683087 -0.20139834 0.18745716 0.11650907
000150 c8 1c 25 3e ce fa ae be 9d 9e 5f be 3d 1d 95 be
       0.1612426 -0.34175724 -0.2183785 -0.2912387
000160 cf 51 21 bd 9c fa 56 be 80 27 3a be 2a 68 8f be
       -0.03938466 -0.20994037 -0.1817913 -0.28009158
000170 ad bd cb 3d 51 55 f6 3e 5a c6 b2 be b1 11 c7 3d
       0.09948287 0.48111966 -0.34916955 0.09720171
000180 2a ae 9c 3e 04 cb 62 3e ec a9 21 3d c3 3e da 3d
       0.30601627 0.22147757 0.03946869 0.10656502
000190 ba 80 76 be 2e 5a a1 3e 52 56 50 bd 40 94 9a 3d
       -0.24072543 0.31514114 -0.05086357 0.07547808
0001a0 98 72 92 3e 50 da 61 be 93 a2 fd 3c 87 4d 49 3e
       0.28603053 -0.22055936 0.03096131 0.1965848
0001b0 1e 5a 29 3e 94 80 be be e8 10 b4 3d 7b 2f 13 3d
       0.16538283 -0.37207472 0.08792287 0.035933953
0001c0 27 29 78 3e f7 01 07 3d 6c 65 d5 be 48 9e 5c 3e
       0.24234448 0.03296086 -0.4167894 0.21544755
0001d0 55 5e 10 3e dd ad 98 3d 73 ff 24 3e 82 11 87 3e
       0.14098485 0.07455037 0.16113071 0.26380545
0001e0 82 a4 bd bd ba 55 a9 3c 6b 50 4b be cd 14 87 3e
       -0.09259893 0.02067076 -0.19854896 0.26383057
0001f0 48 c3 7e 3e e0 e1 35 3e a0 b2 8b be bb 65 3b be
       0.24879181 0.17761946 -0.27284718 -0.18300526
000200 7a 28 2a be 1f d6 03 be 3f 3f 3e be 20 4a 76 3b
       -0.16617003 -0.1287465 -0.18578814 0.0037580803
000210 66 82 03 bc 0a 3d 05 bd b9 85 94 be 49 6f 30 bc
       -0.008026695 -0.032528915 -0.29008272 -0.01076872
000220 81 74 90 be b8 24 89 be 4e 00 0f 3d c0 53 27 be
       -0.28213885 -0.26785827 0.0349124 -0.16340542
000230 64 0a 0b be c6 45 50 3d ef 7b 3f be e0 c3 f7 3c
       -0.13578182 0.05084779 -0.1869962 0.030244768
000240 d3 68 81 3e 2d 6a 8e 3e d7 b9 55 be 34 5f 5c 3e
       0.25275287 0.2781538 -0.20871674 0.21520692
000250 ca 86 92 3e 54 5c 86 3e 83 d3 f8 bc dd 70 7a 3e
       0.2861846 0.26242316 -0.030374294 0.24457116
000260 ea be 21 be 9f 95 e5 be 37 cc bf 3e c7 d7 cc 3d
       -0.15795484 -0.44840714 0.3746049 0.10002094
000270 3a 7a a9 be c8 59 c9 3c aa 2c 47 3e 4c f5 12 bf
       -0.33101064 0.024578944 0.19450632 -0.57405543
000280 50 bf 3f bd 1c fe 4a 3e 1a 2f 21 3e df 7d d6 be
       -0.04681331 0.19823498 0.15740624 -0.41892907
000290 7a 3e 22 3f 09 d8 66 be a6 1e b5 bd 4b 3d 5a be
       0.6337658 -0.22543348 -0.08843736 -0.21312444
0002a0 10 b9 7d 3e 13 55 af be 59 1f 47 3e df 84 79 bd
       0.24777627 -0.34244594 0.19445552 -0.06091773
0002b0 7a e1 99 be e3 44 5b be cd 59 38 be 37 1e d8 3d
       -0.30054837 -0.21412997 -0.18003006 0.10552638
0002c0 6a 57 be 3d 46 02 29 3e 66 43 4a bd 02 92 12 3e
       0.09294017 0.16504773 -0.049380682 0.1431351
0002d0 8a e1 c1 3d 82 09 4b be 19 79 87 3d 51 5e 05 be
       0.09466846 -0.19827846 0.066148944 -0.1302426
0002e0 ec b3 d7 be c5 7b 67 3e 77 a2 0d 3d dc 12 b1 bd
       -0.42129457 0.22605808 0.034578767 -0.08646175
0002f0 98 97 5d be 62 6b 60 bd a3 f4 20 be 52 90 d4 3d
       -0.2163986 -0.05478991 -0.15718322 0.103790894
000300 77 59 36 3e ac b9 eb 3e c4 29 1c bf b0 cf 20 3e
       0.17807566 0.46040094 -0.6100123 0.15704226
000310 72 ce 1f 3e ed b0 4e 3e d0 81 fa 3a 02 29 f0 3e
       0.15606096 0.2018468 0.0019112173 0.46906286
000320 65 ad 7a bd f4 cd 95 3b c0 ae 71 3c 37 ad 23 3f
       -0.06120052 0.0045716707 0.014751136 0.6393618
000330 a5 8f ce be fa e9 b4 bd 7a 30 32 3e a4 04 20 bd
       -0.40343967 -0.0883369 0.17401305 -0.039066926
000340 d1 28 e1 be 9f 99 4d 3f 69 84 d1 3d 4f 0d 81 be
       -0.43976453 0.8031253 0.10230333 -0.25205466
000350 5a c0 02 bc 5f 56 fa 3e 28 3f d2 be 71 83 8d 3e
       -0.0079804305 0.4889402 -0.4106381 0.27639344
000360 42 dd 0d 3e bf 4b 0a 3e c8 5d 86 3d 2b 2c 3c 3e
       0.13853934 0.13505457 0.06560856 0.18376224
000370 63 06 81 3e ac 34 51 be ab 05 48 be 66 fa a3 3b
       0.25200185 -0.20430249 -0.19533412 0.005004215
000380 9a 8a 1f 3e 76 2b 88 be 9f ee a0 be cc 9a 9b 3e
       0.15580216 -0.26595658 -0.31432053 0.30391538
000390 d7 14 98 be 6f 7d 55 be 96 24 4b be c4 12 11 be
       -0.297034 -0.2084863 -0.19838175 -0.14167315
0003a0 ad 37 87 be 36 21 cc 3d 64 46 63 be 06 8c 23 be
       -0.26409665 0.09967272 -0.2219482 -0.15971383
0003b0 84 b2 08 bd 8c ff a0 bd ce 3b 1a 3e 63 fa 94 be
       -0.03337337 -0.07861242 0.15061876 -0.2909728
0003c0 81 2e 93 be 84 dc 9a be 9b 30 50 bc 87 b3 51 bd
       -0.28746417 -0.30246365 -0.012706901 -0.0511966
0003d0 e0 b4 1c 3e ee 3c 3e 3d dd 3a 1d 3e 0f 95 00 be
       0.15303373 0.046444826 0.15354486 -0.12556861
0003e0 04 26 07 3e 5e b9 a4 3e 93 e4 32 bd e1 b8 55 3d
       0.13198096 0.32172674 -0.043675017 0.052178267
0003f0 b9 d3 f5 3d 3e f6 7a 3e 99 d8 41 be 13 f1 6b 3e
       0.120032735 0.24507996 -0.18930282 0.23041181

fc1.bias f4 [64]
000000 00 26 4f 3e 0c 6f 4a be 30 9d 4a be 23 11 8a bd
       0.2022934 -0.19768924 -0.19786525 -0.0674155
000010 52 59 d3 bd 21 03 79 be 49 06 6c 3e 9b e0 3f be
       -0.10319771 -0.243176 0.23049273 -0.18738024
000020 1b fb 2e be a2 42 be be 47 ba 5d be c4 1b 3f be
       -0.17087977 -0.37160212 -0.2165309 -0.18662935
000030 11 8c fb 3d da 6b 07 be 25 29 94 bd 12 9c f8 3d
       0.12282575 -0.13224736 -0.0723441 0.12139143
000040 5d 01 1f 3d 46 76 9f be ac a2 35 bd e8 c8 06 3e
       0.03881966 -0.31144923 -0.04434459 0.13162577
000050 d9 c7 e8 3d 20 78 8d 3e d1 8e 54 be 2c 2f 80 3e
       0.11366243 0.2763071 -0.20757605 0.2503599
000060 d5 65 03 be b4 40 ff 3d dd d4 d0 3d 99 f6 a0 3e
       -0.12831815 0.12463513 0.101968504 0.3143814
000070 cd 05 59 3e 4a 72 5d 3e 71 ee 8d 3e 87 9f 6b 3c
       0.21193619 0.21625629 0.2772098 0.014381296
000080 9e 62 15 be 3d 70 d3 bd b6 f3 72 3d b8 79 af bc
       -0.145884 -0.10324142 0.059314452 -0.021420345
000090 a5 35 00 3e d8 8d 87 be 04 64 8c 3e 4e ab 8e be
       0.12520464 -0.26475406 0.27420056 -0.2786507
0000a0 6e 85 0d bc 37 64 62 3d 7f c1 14 be 08 59 83 be
       -0.008637769 0.055271354 -0.14526938 -0.25653863
0000b0 cf a7 a9 3d 7e dc ed bd 2f 2c 1b 3d 37 a6 74 3e
       0.0828396 -0.11614321 0.037883934 0.23891531
0000c0 07 39 4e 3e 2a 92 77 be a5 b6 45 be e3 c8 61 3e
       0.20138942 -0.24176851 -0.19307955 0.22049288
0000d0 27 05 8e 3e a5 8e 7c bd 80 64 42 3e 9c 07 85 3e
       0.27738306 -0.061659474 0.1898365 0.25982368
0000e0 67 1a 5a 3e 07 67 1e 3e 49 03 87 3d ef 41 9e bd
       0.21299134 0.1546899 0.065924235 -0.077274196
0000f0 db 1b 80 3e 2d 55 27 be 21 30 90 be 0a 94 34 3e
       0.25021252 -0.16341086 -0.2816172 0.17634597

fc2.weight f4 [128, 64]
000000 0c 5a 26 3d 15 c5 c7 3b 10 08 15 3e 9a b5 8e 3a
       0.04061322 0.006096492 0.14553857 0.0010887862
000010 80 af 44 bc 40 f2 88 bc 5c b8 b8 3d 58 bd 9a 3d
       -0.012004733 -0.016717076 0.09019539 0.07555646
000020 8e f5 31 bd e0 b7 a8 bc 0a 60 37 bd 54 56 96 bd
       -0.04344707 -0.020595491 -0.044769324 -0.073406845
000030 41 2e b0 3c e4 b1 b5 bc cb 38 13 3d 3b 02 3a bc
       0.02150643 -0.022179551 0.035942834 -0.011353071
000040 18 d9 84 bd e8 f8 42 bc f5 3c a6 bc 4b 46 34 3d
       -0.0648672 -0.011900164 -0.020292738 0.04401235
000050 ba 31 d3 bc 0c 0c d7 3d 53 c5 b6 3d 9d 8d 96 3b
       -0.025780547 0.10500345 0.08924355 0.0045945183
000060 0f a1 ff 3c 2e 68 2e bd 7f 85 44 3d 74 03 eb 3d
       0.031204728 -0.042579822 0.047978874 0.11475268
000070 8b 78 b8 bc 1a 92 46 bd 5e b3 dd 3c f3 11 2e bd
       -0.022518417 -0.048479177 0.027063068 -0.042497586
000080 5c 09 2d bd 02 21 87 bd c8 60 82 bb a1 2e af bc
       -0.042245254 -0.065980926 -0.0039788224 -0.02138454
000090 02 71 11 3e 1c cf c0 3d e2 93 39 bc 8f 4d 62 bd
       0.14203265 0.09414503 -0.011326762 -0.055249747
0000a0 3b 33 58 3b 35 f0 dd 3c db c7 61 3d 5b b5 46 3d
       0.003298952 0.027092079 0.055122238 0.048512798
0000b0 81 f4 13 bd 78 96 aa bd 41 1e ed bb eb 8f 4a 3d
       -0.03612185 -0.08329481 -0.0072362726 0.049453657
0000c0 2c 9b 46 3d 48 52 ce bc 47 18 a6 3d 01 63 17 bd
       0.048487827 -0.02518572 0.08110099 -0.03695965
0000d0 1d 90 e8 bd b3 43 10 3e 70 36 81 3d d6 1b e9 bc
       -0.113556124 0.14088325 0.06309211 -0.028455656
0000e0 2f c6 e2 3d da 28 aa 3d 1b 1b 5e bd 5f 11 f7 3d
       0.11072957 0.08308573 -0.05422507 0.1206386
0000f0 ad 58 a2 3c 39 b1 f2 3d 1e 0f dd 3b c3 7e 1d 3e
       0.019817675 0.11850209 0.006746187 0.15380387
000100 9f da 15 3d 40 ef 57 3c 8c 13 ed 3d a3 5a 7b bd
       0.036585446 0.0131796 0.11575994 -0.061365735
000110 be 3a cf bd 67 5d ed 3d 1b 4e a3 bd 39 07 1f be
       -0.10118626 0.11590081 -0.07973882 -0.15530099
000120 0e af 9b 3c ec ab 64 bb 90 85 a6 3d a5 30 cf bd
       0.019004371 -0.0034892512 0.08130944 -0.101167
000130 91 85 d6 3d c5 5f ec bd 84 93 97 3d da e1 89 bc
       0.104746945 -0.11541704 0.07401183 -0.016831327
000140 a4 cf 8d bc eb 49 51 3d 87 29 83 bd fd 17 b9 3c
       -0.017310925 0.051095884 -0.06404405 0.022594446
000150 a9 ab dd 3c c6 bb ab bd 65 17 12 3e 3c c6 42 3c
       0.027059393 -0.08385424 0.14266737 0.011888083
000160 eb b4 70 bc a5 12 db bd 86 44 02 bd a1 f2 50 3d
       -0.014691572 -0.106969155 -0.03180363 0.05101264
000170 e5 3b 79 3d b6 f3 68 bd 4c a3 4b 3c 5c 0f af 3c
       0.060848136 -0.056873046 0.01242907 0.021369629
000180 55 8c 95 bd 16 b1 77 bd 71 aa 76 3d 4a 0a 9e bc
       -0.07302157 -0.060471617 0.06022114 -0.019292016
000190 63 1d e2 3d 45 0b 15 be eb 4a c7 ba 5f 3a 65 3d
       0.11040761 -0.1455508 -0.0015204822 0.05596387
0001a0 0c df 58 bd 81 03 1a 3e 3a a2 a8 3d a6 ae c8 3c
       -0.05294709 0.15040399 0.08234067 0.024497341
0001b0 87 10 a4 3d 7f 0a b2 3d 34 13 4d bc 88 4e d1 bd
       0.08010965 0.08693408 -0.012516785 -0.10220057
0001c0 47 55 7c bb 7c 85 09 3d c6 8f 33 bd 51 6f e2 bc
       -0.0038502978 0.033574566 -0.043838285 -0.02764097
0001d0 24 5f 60 bc 3a 4a 70 bc be be 7a bc 66 69 67 bd
       -0.013694558 -0.0146661345 -0.015304266 -0.056497
0001e0 cc eb a8 3d df d3 a0 3d 12 29 d2 bd d1 1e 06 3e
       0.082481 0.07852911 -0.1026174 0.13097693
0001f0 d4 ea cd 3c 33 36 f0 3c 9a dc a5 bd a7 f4 e3 bd
       0.025136389 0.02932272 -0.08098717 -0.11130648
000200 e7 62 3c 3c 0d 94 0d bc 39 f9 87 bd 19 d6 90 3c
       0.0114981895 -0.008641255 -0.06639332 0.017680215
000210 9e 15 09 bd 29 6c 21 bd a4 d4 26 3b 02 a8 ba bd
       -0.03346788 -0.03940979 0.0025456334 -0.09114076
000220 66 0e 74 3c 65 14 74 3d b8 01 a6 bc ce 97 0b 3e
       0.014896011 0.059589762 -0.020264491 0.13632128
000230 2d 38 d7 bb f1 b4 d9 3d c2 d5 db 3d e5 94 2b bc
       -0.006567976 0.10630215 0.107341304 -0.010472511
000240 25 2b c4 bd 71 fb 03 bd 10 40 f2 3d c7 c1 cb 3b
       -0.09578542 -0.032222215 0.11828625 0.0062181684
000250 2f 06 30 3e ae 5d f3 3d 1a db 97 3d 11 49 de 3d
       0.17189859 0.11883102 0.07414837 0.1085378
000260 38 2e 58 3c 50 29 54 bd 83 b6 52 3d 17 07 62 bd
       0.013194613 -0.05179721 0.051443588 -0.055182543
000270 d6 c1 71 3d 88 34 61 3d e3 83 d8 bc e1 c3 ea 3d
       0.059022747 0.05498174 -0.026430076 0.11463142
000280 25 51 c3 bc d8 a6 81 3d e3 3a 0f 3e a0 48 33 3d
       -0.023842404 0.06330651 0.13987307 0.043770432
000290 1f c4 b4 3d d7 7e b5 3d 62 ce 4b 3c 90 eb 54 3d
       0.0882647 0.088620834 0.012439342 0.051982462
0002a0 98 19 9b bc 96 a2 e6 3b bb 3b 9e bd 24 d9 5a 3d
       -0.018933102 0.0070384247 -0.077262364 0.053429738
0002b0 6c b1 46 bd b3 f0 e5 3d 43 74 97 3c 84 84 a7 bd
       -0.048509046 0.1122755 0.018488055 -0.08179572
0002c0 6f 72 0f 3b d3 94 19 bc 2b 80 d0 bd 42 ff b0 3c
       0.0021888276 -0.009373861 -0.10180696 0.021606091
0002d0 2a 43 7d 3d 58 ba aa 3d 84 c4 9f 3d 37 14 fd bd
       0.06183163 0.083363235 0.07801154 -0.12357371
0002e0 ca de c6 3d b2 d4 5a bb 9a 83 c2 3d 50 c1 ef 3d
       0.097104624 -0.0033390936 0.09497757 0.11706793
0002f0 51 c7 86 bd 5c a4 fd 3d f4 47 94 3d fc fe 3c 3e
       -0.06580985 0.12384865 0.072402865 0.18456644
000300 0d e5 fd 3c 04 28 e3 3d 87 0f 10 bc ff d6 88 3c
       0.030993009 0.11091617 -0.0087927645 0.01670408
000310 48 df 3e 3d 40 6b 36 bd 5b 9e 32 3d ef 32 3b bc
       0.046599656 -0.044535875 0.04360805 -0.011425718
000320 4a 09 68 3c de 27 b6 3d 54 63 8b bd 11 5c 12 3d
       0.014162371 0.08894323 -0.06806055 0.035732333
000330 0f bc f1 3c 74 f9 a8 3b 6f e8 c9 bd f0 b2 bd 3d
       0.029508619 0.0051566903 -0.09858786 0.09262645
000340 cf b6 50 bd f2 9b 78 bd 7c 12 9e 3d b0 c9 9b 3d
       -0.05095559 -0.060695596 0.07718369 0.07606828
000350 40 46 00 3e 1e f4 ac 3d 80 b4 9c bd 65 d1 52 3d
       0.12526798 0.08444999 -0.07651615 0.051469225
000360 e9 bc e2 bc d3 14 69 3c 0a a2 a7 bd 52 8b 2f bc
       -0.02767797 0.014226156 -0.081852034 -0.010714369
000370 1f 41 97 bd 93 6d 04 be 80 99 be bd 55 96 85 3d
       -0.07385468 -0.12932424 -0.093066216 0.06522814
000380 9d 20 2c 3e d7 93 74 3d 9c 00 57 3c 46 97 04 bd
       0.16809316 0.059711304 0.013122704 -0.032370828
000390 38 e3 b0 bd 5d 54 4b bd 4d 57 17 3d 29 da b8 bd
       -0.086370885 -0.049641002 0.03694849 -0.09025986
0003a0 7d 9a 08 bd a8 c8 d6 bd 62 c2 cb bc dd 07 06 3e
       -0.033350457 -0.10487491 -0.024872962 0.13088937
0003b0 a1 03 67 bd a7 ed 99 bd 3e 96 ff 3b 07 8a 66 bc
       -0.056399945 -0.07516032 0.0077998927 -0.014070994
0003c0 f2 38 a8 3d 0c bf 50 bd e7 7b 9a bc f8 1a 9f 3d
       0.082139865 -0.050963446 -0.01885791 0.07768816
0003d0 a6 5b 51 bd 95 3c 0e bd 2c 90 d8 3c 2e 85 75 bd
       -0.051112793 -0.034725744 0.026435934 -0.059941463
0003e0 62 9c 3b bd 32 92 1b bd ce 84 98 3d 46 2b e0 bc
       -0.045803435 -0.03798122 0.074472055 -0.027364384
0003f0 f2 9d 0e bd c5 df 2f bd f3 92 9d 3d 09 11 21 3e
       -0.034818597 -0.042938013 0.07694044 0.15729155

fc2.bias f4 [128]
000000 2c 74 07 be 4b 4c 8d 3c 12 49 e3 bd cc b8 1b be
       -0.1322791 0.017248293 -0.110979214 -0.15207213
000010 e7 d3 d5 3d 5b ee 7b 3c 7c e3 2e be b6 ac 0a bd
       0.10440808 0.015376653 -0.17078966 -0.033856116
000020 b7 d0 2d 3c fc 59 73 3d 30 2a 16 be da 6e 0f bd
       0.0106088435 0.059411988 -0.14664531 -0.035017826
000030 32 d9 39 bd 5d 98 c0 3b ea 05 0f 3d 48 98 89 bd
       -0.04537315 0.005877538 0.03491775 -0.067184985
000040 85 e6 1e be 8b c3 fb 3b 8f c9 e8 bc e4 0e d2 3d
       -0.15517624 0.0076832226 -0.028416423 0.102567464
000050 c1 79 9b bd 38 10 3c 3d 32 ac 1b be e0 08 4e 3d
       -0.07591582 0.045913905 -0.15202406 0.050301433
000060 a9 8a 62 3d 4a 87 21 3c 3f b6 5e 3a 57 dc c0 3d
       0.055308018 0.009858916 0.0008495785 0.094170265
000070 51 ef 12 3e f8 c3 34 3e b6 8c 56 bd 5c c1 5d 3d
       0.14349104 0.17652881 -0.052380286 0.05413948
000080 3c b9 a9 3a 25 38 83 bd 18 e8 14 bd 78 9f 87 3b
       0.0012948881 -0.06407193 -0.036354154 0.004138883
000090 cf 04 58 bd f8 98 00 3e 22 f3 1d 3e 5d 6f 41 bc
       -0.05273896 0.12558353 0.15424779 -0.011806336
0000a0 ab ac 3e 3e 47 36 10 3d 1b b3 6a be 98 32 1e be
       0.18620555 0.035208013 -0.22919886 -0.15448987
0000b0 0c 3a 2f 3d 22 46 a4 3d be 85 15 3e ed 5c 2d bd
       0.042779967 0.08021189 0.146018 -0.04232495
0000c0 b3 e6 65 bd 8a 0c 41 3c 05 21 32 ba 34 9f 8f bd
       -0.056128215 0.011782775 -0.00067950814 -0.070127875
0000d0 92 20 ed 3c 9a 7d a3 3c 6b fb e8 3d a6 6d 7e bd
       0.028946195 0.019957352 0.11376079 -0.062116288
0000e0 ba 09 20 bb 50 b9 1f be e9 c5 3d be a6 4e 3f be
       -0.002441986 -0.15598035 -0.18532528 -0.18682346
0000f0 77 60 9b 3d c5 2c 02 be d0 8d b9 bc 2b c6 ec 3d
       0.075867586 -0.1271239 -0.02265063 0.11561235
000100 42 9d f8 ba 1f 9e ea bd 69 5b 12 3e 3c d9 cd 3d
       -0.0018967765 -0.114559405 0.14292683 0.100512
000110 22 08 f8 bd 49 7b b5 bd c3 4d cc bd 51 ec e1 bd
       -0.12110926 -0.088614054 -0.09975769 -0.11031402
000120 b4 e1 ad bd 36 3d 11 bd f7 15 c5 bd 4d d4 19 3c
       -0.08490315 -0.035458766 -0.0962333 0.009388995
000130 27 da 5a bd 97 19 9c 3c 2a 8e 15 3e dc 2f 4b 3b
       -0.053430703 0.019055171 0.14605013 0.0031003868
000140 6e 1e 0d 3e f0 bb c1 bc 32 10 a7 bd 77 a1 fd 3c
       0.13781139 -0.023649186 -0.08157386 0.030960781
000150 e3 16 ea 3d 42 d4 2c bd 27 df 5b bd 90 1d f1 3d
       0.114301465 -0.042194612 -0.05367961 0.11773217
000160 84 0e 3e bd 0e 24 c8 bd 1f 28 12 bd 30 49 8a bc
       -0.046400562 -0.09772502 -0.035682794 -0.016880602
000170 ec 91 c4 bd 14 62 a6 bc e6 9b 07 bd 43 7b 14 3e
       -0.09598145 -0.02031044 -0.03310766 0.14500146
000180 ac ea ca 3d bf 2f d8 3b 4d 57 4d 3d 83 e6 c9 ba
       0.09908041 0.0065974887 0.050132085 -0.0015403781
000190 86 ec 19 bd df d1 1f 3e 15 d6 52 bd 9c 83 53 bc
       -0.037579082 0.15607403 -0.051473696 -0.012909796
0001a0 59 e9 00 be 8e d6 8a 3c d0 00 e2 3c 41 58 32 be
       -0.12589015 0.01694801 0.027588278 -0.17416479
0001b0 89 9c 8a 3d 23 ec 0b be cb c0 b0 3c db 2e 8e bd
       0.06768138 -0.13664298 0.021576306 -0.06942531
0001c0 77 c4 9f bd 9b 9c f2 3d f6 32 04 3e b3 e7 0d 3d
       -0.078011446 0.118462764 0.12910065 0.034644794
0001d0 eb 2b a9 3d e0 f1 c0 bd 1a af 8b bd 3e 27 da bd
       0.0826033 -0.09421134 -0.06820507 -0.10652016
0001e0 2f e9 5c 3d b4 b2 28 bd 38 2f 0a 3d dc 60 42 3d
       0.05393332 -0.04118605 0.033736438 0.047455654
0001f0 c9 5e 82 bd f2 0e b1 bd 4d 41 56 bd 5c ea f7 bb
       -0.06365735 -0.08645429 -0.05230837 -0.0075657796

fc3.weight f4 [128, 128]
000000 7b fd 25 3d 8c 38 f1 bb 6f 61 40 bd 3c bb e3 3d
       0.04052494 -0.0073614772 -0.04696792 0.111196965
000010 3d ac b4 bc bb 7c 9b bd fa c0 66 3d c9 91 bf bd
       -0.022054786 -0.0759215 0.05633638 -0.09353978
000020 79 fa ae 3b 18 7b 82 3c 92 39 14 3d 93 41 7b bc
       0.0053399173 0.015927836 0.036187716 -0.015335458
000030 43 f0 1b bd b6 3c 9f 3c 6e ab 9c bd 5f e1 52 3d
       -0.03807093 0.019438129 -0.07649885 0.051484462
000040 bb 30 40 bc b3 95 be bd aa 7b 53 bc 29 83 95 3c
       -0.011730368 -0.093058966 -0.012907902 0.018251019
000050 c2 4c 3e 3d 7d b4 26 bc 72 1b 19 3d 99 60 80 3d
       0.04645992 -0.010174868 0.03737969 0.062684245
000060 ac 45 10 bd 72 f1 81 3c 00 23 d7 3c 0d ae 0c 3d
       -0.035222694 0.0158622 0.026261806 0.034345675
000070 40 60 a2 3d 48 38 4b bd 2a d9 44 3d d2 22 9e 3d
       0.079285145 -0.04961422 0.048058666 0.07721485
000080 66 63 a6 bc 95 dd 5e 3c ec f6 e6 3b bf f1 95 bd
       -0.020311069 0.013602634 0.0070484784 -0.073215
000090 75 3c 6a 3c b1 76 c0 bd 00 f4 a8 3d 5b 27 8c bc
       0.014296641 -0.093976386 0.08249664 -0.01710861
0000a0 f9 5b 23 3d 06 7d 7a 3d 98 16 37 bd 5a 01 22 bd
       0.039882634 0.061154388 -0.04469928 -0.03955207
0000b0 8a ec 83 bc c0 20 0e 3d 2e ea fb bc cf 60 16 bc
       -0.016104002 0.0346992 -0.030751314 -0.009178354
0000c0 49 e0 49 3d 94 78 27 3d a6 df 07 3d 8d de dd 3d
       0.04928616 0.040886477 0.033172272 0.10833464
0000d0 67 e9 cb 3a 15 51 8d bc 5d db 6c 3d 1f e4 e2 3a
       0.001555723 -0.017250577 0.05782639 0.0017310417
0000e0 c8 af 1a 3d 3b 8c 4b bd 84 61 f4 3d e7 e4 b7 bc
       0.037765294 -0.04969428 0.11932662 -0.022448016
0000f0 ca 28 0e 3d 13 71 5f 3d 5c 79 bc 3b 3c 91 8d 38
       0.03470687 0.054551195 0.005751772 6.750456e-05
000100 3b 17 34 bd a0 27 bf 3d ea 51 30 bd e3 ca c6 bd
       -0.043967467 0.0933373 -0.04304687 -0.09706666
000110 c7 aa 7b 3c 1e 1f 75 3c 40 9d ac 3d 50 01 7a bd
       0.015360541 0.014961032 0.084284306 -0.061036408
000120 3a f5 0f bd 08 2f 08 3d 74 a3 9d 3d 0c 1c 2e 3d
       -0.035145976 0.033247977 0.07697192 0.042507216
000130 96 a0 e8 bd 20 38 0b 3d fd 53 8c ba d7 6c 8e 3c
       -0.11358754 0.03398907 -0.0010706183 0.017385883
000140 24 0b 63 3c d6 98 23 3e ee 4e 42 3d 03 9e 8c bd
       0.013857637 0.15976271 0.047438554 -0.06866076
000150 77 bf 23 3d 09 a7 4e 3d 20 77 c4 3c 74 74 d9 3c
       0.039977517 0.050452266 0.023982584 0.026544787
000160 6a 6d 4e 3d 3a d7 a7 bc 79 bf 8c bd 1e d9 be bc
       0.050397314 -0.02048837 -0.06872458 -0.023296889
000170 c0 fe 8c 3d b2 fd db 3b ea 9b b7 3c 40 eb c1 bd
       0.06884527 0.0067135924 0.022413213 -0.094686985
000180 f7 17 93 bd 27 60 bf 3d a5 98 c5 bc 64 48 53 bd
       -0.07182305 0.093445115 -0.024120638 -0.05158271
000190 b4 68 c3 bc f6 54 a2 bd 9f 6a dc 3d c1 78 af bd
       -0.023853637 -0.07926361 0.10762524 -0.08567954
0001a0 30 b1 03 bd 4e 97 85 3d 07 b1 cb 3d f2 95 93 3d
       -0.0321514 0.06523 0.09945875 0.07206334
0001b0 00 77 34 3d ea 1e 52 3d 87 a8 8b bd 0e cc b6 3b
       0.0440588 0.051299013 -0.068192534 0.0055785244
0001c0 5d 23 8e bc 37 b3 bc bd de 49 96 3c 5b e1 8c bb
       -0.017350847 -0.0921387 0.01834577 -0.0042993254
0001d0 e6 ea 09 3d 04 4a 80 3c 84 eb ab 3d 7a d4 ce bd
       0.033671282 0.015660293 0.083945304 -0.100991204
0001e0 e1 b8 95 3d 65 96 7d 3b 28 8c 12 3d b4 0e 73 3d
       0.073106535 0.0038694378 0.035778195 0.059340194
0001f0 aa 81 d4 3c 0c 90 03 bb c7 08 a6 3d 66 4b ae 3d
       0.025940735 -0.0020074872 0.08107143 0.08510475
000200 62 a1 37 bd f4 a5 23 bc c3 56 28 3d 3b ae 12 3d
       -0.04483164 -0.009988297 0.041098367 0.03581069
000210 b1 a0 05 3d 66 ea 23 3d 0e c8 e9 3d 8a e7 96 bd
       0.03262395 0.04001846 0.114151105 -0.07368381
000220 74 1f 73 3d 70 f5 89 bd 3b 75 cf 3d 4a 65 49 3d
       0.059356168 -0.067362666 0.10129782 0.049168862
000230 8b 64 83 bc 95 7b 04 bd d9 fe 92 bc 77 a9 55 3a
       -0.016039154 -0.03234442 -0.017943786 0.00081505574
000240 20 df 91 bd fd 1a ef 3c b3 64 b9 bc 86 03 26 bc
       -0.07122636 0.029187674 -0.022631025 -0.010132676
000250 1e a8 d5 bd b6 3e a2 bb 62 8f 51 bd bf 8f c6 bd
       -0.104324564 -0.0049513234 -0.05116213 -0.09695386
000260 de 0f aa bb c7 bb dd 3a d5 f7 05 3d 95 d6 d1 3b
       -0.00518988 0.0016916924 0.032707054 0.006403754
000270 2c 79 fc bc 4d 36 39 3d 8b 32 82 bd 1b 7d 9e bd
       -0.030819498 0.0452178 -0.063572966 -0.07738706
000280 7c 28 b5 bd d4 ce 9c bc 8b 69 99 3c 60 0a 72 3d
       -0.088456124 -0.019141592 0.018727085 0.059091926
000290 28 18 9c bd 57 3e 17 bc c6 7f f7 bd 1b 11 0c 3d
       -0.07621795 -0.009231172 -0.12084918 0.034196
0002a0 b1 54 00 3d ad bf f5 bc 5c 6f b1 bd 27 b7 83 bd
       0.031330768 -0.029998625 -0.08663818 -0.06431418
0002b0 cc 02 95 bd 7a 65 78 bd 3c 1a 7f 3d ac cc 82 bc
       -0.07275924 -0.06064365 0.06228088 -0.015966736
0002c0 84 43 32 3d 7a 00 02 3d 56 43 92 3b 24 4b c1 bc
       0.04352142 0.031738736 0.0044635935 -0.0235954
0002d0 93 b1 86 bd 17 66 06 3c 0a 7e 12 bd 66 11 c3 3d
       -0.06576838 0.008203051 -0.03576473 0.09524803
0002e0 45 66 1f 3b c7 35 6a 3d b3 a9 ca bc b9 62 9b bd
       0.0024322432 0.057180192 -0.024739122 -0.07587189
0002f0 8e 27 f2 3c 80 da d8 3d e8 fb 74 bd fd 20 5a 3d
       0.029559877 0.105885506 -0.05981055 0.053254116
000300 55 15 7d 3d 21 f1 a7 3d 99 10 e7 3c 4f 1f 3c bd
       0.061787922 0.082002886 0.028206157 -0.045928296
000310 62 9d bd bc f0 8c 9e 3c 74 0c 99 3d ce 42 ab bd
       -0.023146335 0.019354314 0.07473078 -0.08362351
000320 8c f6 a9 3d dd da dc bc 72 e1 7f 3d 9a c5 a0 3d
       0.08298978 -0.02695983 0.06247086 0.078501895
000330 5c 70 95 3d 9a 3a 1e bd 04 3f 91 bc 1c 07 1c bd
       0.072968215 -0.038630106 -0.017730244 -0.038092718
000340 ca 02 43 3d 06 14 c0 bd 05 38 af 3c 0c 00 d4 bd
       0.04761008 -0.09378819 0.021389017 -0.103515714
000350 59 3d c6 bd 28 8f 2c 3d 6e 4f 62 3d 49 ae ad bd
       -0.0967967 0.042128712 0.05525153 -0.08480508
000360 1c 5d 89 3d df ae c3 3d 79 04 00 bd b9 c4 e3 3d
       0.06707212 0.095548384 -0.031254265 0.11121506
000370 6e ae a7 3c 70 56 1f bc b3 42 5f bd d8 01 2b bd
       0.020468917 -0.009725198 -0.05450697 -0.041749805
000380 a8 06 bb 3d 37 ea 4a 3c 43 6b 97 3d 48 c0 15 3d
       0.09132129 0.012384943 0.073935054 0.036560327
000390 3c 93 ac 3d 38 20 af bd ab 17 cf 3b 43 23 28 bd
       0.0842652 -0.08551067 0.00631996 -0.041049253
0003a0 14 41 90 bd bf 15 c7 bd 04 c2 fd bc 72 4a c5 3c
       -0.07043663 -0.097209446 -0.030976303 0.02408335
0003b0 e4 8e a6 bd e7 df 90 3d cc 65 92 bc 06 60 58 3b
       -0.08132723 0.07073956 -0.017870806 0.0033016219
0003c0 a6 1d 6a 3d d8 d3 cb bd a1 84 7a bd ed cc 97 bd
       0.05715718 -0.09952515 -0.06116164 -0.07412133
0003d0 bd 69 e1 3b f0 b9 75 3d f0 93 bd bd 69 85 5a 3c
       0.00687906 0.059991777 -0.092567325 0.0133374715
0003e0 b5 f8 93 bd 91 41 53 bc 09 57 fb 3d fa fe 59 bd
       -0.072251715 -0.01289405 0.1227246 -0.05322168
0003f0 be fd a3 3b 37 f6 73 bb 6c 8e 93 bd e1 1d 80 bc
       0.0050046137 -0.0037225613 -0.07204899 -0.015639247

fc3.bias f4 [128]
000000 b1 fe 51 bc 43 a3 28 3c 99 70 c4 3d 6e 22 d8 3d
       -0.012817071 0.010292831 0.09591789 0.10553442
000010 96 90 0b be 10 37 20 be e2 35 af 3b 86 6f 27 bc
       -0.13629374 -0.15646005 0.0053469995 -0.01021946
000020 0b 9f e8 bd 87 f0 19 3e 4e 08 fd 3c 17 af 17 bd
       -0.1135846 0.1503316 0.030887749 -0.037032213
000030 6c 77 29 3d 6c a4 42 bd aa e1 21 3e aa 43 01 3e
       0.041373655 -0.047520086 0.1580874 0.12623468
000040 3b 9e 13 3e 13 a5 cb 3d db ef 42 3d 0e 71 7c bc
       0.14415829 0.09943595 0.047592025 -0.015407814
000050 85 0e b5 3d 84 51 2c 3d 5c 94 28 3d d7 ed 98 3d
       0.0884066 0.042069927 0.04115711 0.07467239
000060 59 44 03 be 1d 2e f6 3d 6c fc 32 bd dd de e9 3d
       -0.12819041 0.12020514 -0.04369776 0.11419461
000070 d0 e0 95 3d c6 e9 1c be 95 ee 85 bd 70 10 d5 3c
       0.0731827 -0.15323552 -0.065396465 0.026008815
000080 25 fd c7 3d e1 b9 dc 3d 36 fe 12 be 00 62 f5 3c
       0.0976508 0.10777641 -0.14354786 0.029953957
000090 ae 08 db 3d 14 6e b3 bd 48 27 37 3d 54 14 1b be
       0.10695015 -0.0876123 0.044715196 -0.15144473
0000a0 1a 55 b1 3c 2c a4 f9 3c 93 28 a1 3c fb 5d a6 3d
       0.021647025 0.030473791 0.019672668 0.08123394
0000b0 af 57 bd bc fe b1 a3 bd 10 fa e4 3d 19 44 0f be
       -0.0231131 -0.07992934 0.11180508 -0.13990821
0000c0 c5 40 80 3d 59 e2 fe bd 09 46 d9 bd 71 22 ac 3c
       0.06262354 -0.12445516 -0.10609061 0.021012517
0000d0 a2 c5 92 bc 9b 5a cb 3c 45 48 08 bd 4e d5 3d bd
       -0.017916504 0.024823477 -0.033272047 -0.046346
0000e0 8c 5d 2d 3b 0b 85 d9 bc 61 f9 41 3e 02 ef d5 3d
       0.0026453463 -0.026552698 0.18942787 0.10445978
0000f0 b3 bd 5e 3a ab df 02 3e 93 be 20 be ae b3 14 be
       0.00084968953 0.12780635 -0.15697698 -0.14521667
000100 b1 dc 8b 3c 2b 05 1f 3e f9 e2 e1 3d 5e 1f 16 3e
       0.017073007 0.15529315 0.1102962 0.14660403
000110 6a db 05 3e cc f8 26 bd dc 2a c5 3b c0 8b 8d bd
       0.13071981 -0.040764615 0.006017072 -0.06911421
000120 f1 1f d3 3d c6 2d 05 3e 21 ae b9 bd 44 22 da bd
       0.10308827 0.13005742 -0.090664156 -0.10651067
000130 e9 5a bd bd 44 f4 15 3e c2 ed b5 3d 93 02 1f be
       -0.09245855 0.14643961 0.08883239 -0.15528326
000140 30 89 0e 3e 9a 34 1c bd 25 43 87 bd 97 df 14 3e
       0.1391952 -0.038136102 -0.06604604 0.14538418
000150 d4 65 e8 bd 00 21 c1 3d 2a 14 03 3d 9a 48 87 3d
       -0.11347547 0.094301224 0.03200165 0.066056445
000160 38 c1 34 bd 10 64 ad 3d f9 a9 b8 3d 43 9b 3e 3e
       -0.04412958 0.08466351 0.09016795 0.18613915
000170 f7 55 65 3c 5b 61 36 3e e7 ae e6 bd 1e e6 1d be
       0.013997546 0.17810576 -0.11263829 -0.15419814
000180 07 91 4c 3d 7c c8 1a bc 60 32 4e bd 87 f3 8c 3d
       0.049942996 -0.009447213 -0.05034101 0.06882387
000190 22 af c1 3c 4d 15 9c bc 10 ae e5 3d b5 4a 07 be
       0.02364308 -0.019053126 0.112148404 -0.13212092
0001a0 4d b0 f8 bb 65 e6 98 3d e8 e8 4b 3d 6a 2d 99 bd
       -0.007589376 0.07465819 0.049782664 -0.07479365
0001b0 ff 6d 06 3e f1 b9 23 be 91 c8 81 3d 53 7a c5 3d
       0.13127898 -0.159889 0.06337083 0.09642472
0001c0 97 20 9f 3b 40 62 c2 3c 8e c1 3c bd a5 16 b4 3d
       0.00485618 0.02372849 -0.046083026 0.087933816
0001d0 bb 94 ba ba bb c4 a4 bd 3e 0c 0b 3e 1c 31 b3 3d
       -0.0014234999 -0.08045336 0.13578889 0.08749601
0001e0 63 e0 ca bd 42 69 82 bc cf 81 77 bd 06 ca f9 3d
       -0.099060796 -0.015919331 -0.06042653 0.12196736
0001f0 92 c3 43 bc 0d 12 2d ba 73 89 e3 bd f6 23 4a 3d
       -0.011948483 -0.0006602116 -0.11110201 0.0493507

out.weight f4 [1, 128]
000000 e3 5b 85 3d ac ef ae bd b8 86 ca bd 51 ef a7 bd
       0.065116666 -0.085418075 -0.09888977 -0.08199943
000010 4b e5 00 3d 00 b7 aa 3d f2 d6 bf bd 84 d8 9a 3d
       0.03146867 0.08335686 -0.093671694 0.07560828
000020 30 79 01 3e c1 95 10 be 15 39 37 be 8e 3e ce 3d
       0.12643886 -0.14119627 -0.17892869 0.10070525
000030 11 08 49 be 8a cf 96 3d b2 21 4e be 46 bf 71 be
       -0.19631983 0.07363804 -0.20130041 -0.23608121
000040 b5 82 1e be 87 65 38 be 15 62 97 bd 87 25 aa 3d
       -0.15479548 -0.1800748 -0.073917545 0.08307939
000050 84 09 cc bd 1b b8 a6 bd 96 60 9e bd 26 e6 10 be
       -0.099627525 -0.08140584 -0.07733266 -0.14150295
000060 64 67 af 3d 4d c4 aa bc 67 25 0c be 42 fe 81 bd
       0.08564642 -0.020845557 -0.13686143 -0.06347324
000070 49 30 61 be d5 d9 0d 3e 8f a0 0f 3d d0 d8 59 be
       -0.21991076 0.13852628 0.03506523 -0.21274114
000080 fb 1c a1 bd 66 1f a4 bd 9c 53 03 3e 5b 75 d7 bd
       -0.07866856 -0.08013801 0.12824863 -0.10520431
000090 e3 72 55 be 5c ef c0 3d ec 1b 4c bd 42 9e 10 3e
       -0.20844607 0.09420654 -0.049831316 0.1412287
0000a0 3f 82 13 3d 80 dd fd 3c 53 83 62 be 30 4c 06 be
       0.036012884 0.030989408 -0.22120409 -0.13115
0000b0 9b 15 8d 3d f6 a1 5d 3d f3 f8 d0 bd 5e f0 19 3e
       0.068888865 0.054109536 -0.10203733 0.15033099
0000c0 23 22 ca bd 34 4f 85 3d 19 4a 07 3e 98 0a d3 bd
       -0.09869792 0.065092474 0.1321186 -0.10304755
0000d0 bc 8e 67 3d 73 34 d4 bd 75 0b f0 bd 23 4d 8a 3c
       0.056532606 -0.103615664 -0.11720935 0.016882485
0000e0 b0 30 66 bd 7d 25 76 3c 10 da 67 be 2a c2 3e be
       -0.056198776 0.015023586 -0.22641778 -0.18628755
0000f0 ca 50 4d be 46 de 53 bd 50 3b 9c 3d d0 44 cb 3d
       -0.2005035 -0.05172565 0.076285005 0.09925234
000100 e0 5e 14 be 95 3f 66 be 7a a2 4d be ed 87 19 be
       -0.14489317 -0.22485192 -0.20081511 -0.14993258
000110 6e 32 0f be 32 e0 06 3d e6 55 3c be 69 93 f8 3d
       -0.13984081 0.032928653 -0.18392143 0.12137491
000120 3e 18 84 be 28 06 17 be 7a 5f 94 3d 30 58 cb 3d
       -0.25799745 -0.14748442 0.07244773 0.0992893
000130 a6 e4 b7 3d 7b a3 7c bd cc f1 96 bd bc 79 18 3e
       0.08979158 -0.061679345 -0.07370338 0.14890188
000140 ec 36 9a bd 65 3d 15 3e 95 38 02 3e 9a a2 9b bd
       -0.07530007 0.14574201 0.12716897 -0.07599373
000150 f0 8e a8 3d a4 cb c5 bd 97 09 bc bd 99 8f 83 bd
       0.08230388 -0.09657982 -0.091815166 -0.064238735
000160 e5 cb c5 3d 71 6c 63 bd 14 f2 1b be d8 8b 84 be
       0.096580304 -0.05552334 -0.15229064 -0.25887942
000170 26 d8 3b bd d3 e4 35 be f5 05 23 3e 62 07 1c 3e
       -0.045860432 -0.17763071 0.15920241 0.15237191
000180 f7 29 ef bd 14 93 4b be 25 b8 6b 3d 65 d8 13 be
       -0.11677926 -0.19880325 0.05754866 -0.14438017
000190 dc 82 2d be b7 df bb bd 14 e2 a2 be de 35 ff 3d
       -0.1694445 -0.091735296 -0.3181311 0.12461446
0001a0 39 0a 02 be 12 52 14 be 13 98 ce bd b5 be fb 3d
       -0.12699212 -0.14484432 -0.100875996 0.12292234
0001b0 43 41 e4 bd f8 5f 1c 3e d6 65 b1 bd c1 89 96 bc
       -0.1114526 0.15270984 -0.08662002 -0.018376233
0001c0 cc c4 a4 bd 48 48 06 be f7 ba 3c 3d 4e 42 1e be
       -0.080453485 -0.1311351 0.04607674 -0.1545498
0001d0 8f 72 94 bd e4 b9 b2 3d bc d3 35 be 77 a5 e4 bd
       -0.07248413 0.08726862 -0.17756552 -0.111643724
0001e0 a8 e4 c8 3d 9a 67 98 3d 26 de f3 3c 9c 50 7b be
       0.09809238 0.074416354 0.029769015 -0.24542469
0001f0 82 ca ad bd 1f d4 92 bd 73 53 ed 3d a6 2f 33 be
       -0.08485891 -0.07169365 0.11588182 -0.17498645

batchn1.weight f4 [64]
000000 05 5e 7c 3f 34 69 86 3f de 07 82 3f c2 a6 69 3f
       0.9858096 1.0500855 1.0158651 0.9127008
000010 d1 93 71 3f 39 e1 66 3f 38 05 72 3f 27 13 80 3f
       0.94366175 0.9018741 0.94539213 1.0005845
000020 ca 2f 7a 3f ee 31 7c 3f 35 92 6d 3f 96 01 73 3f
       0.9772917 0.98513687 0.9280122 0.94924295
000030 ca 89 66 3f 00 00 80 3f 72 fe 6e 3f e0 c5 7c 3f
       0.90054 1.0 0.93357 0.98739433
000040 fd 07 7b 3f 94 d6 6d 3f 0b 22 7e 3f b8 5f 7b 3f
       0.98059064 0.92905545 0.99270695 0.9819293
000050 f6 63 8c 3f d1 25 82 3f 92 4e 73 3f 00 00 80 3f
       1.0968006 1.0167791 0.95041764 1.0
000060 86 53 73 3f da 0b 82 3f bb fe 72 3f 52 cd 81 3f
       0.9504932 1.0159867 0.9491994 1.0140784
000070 ee b6 62 3f 4b fa 88 3f 06 b8 56 3f 68 21 7f 3f
       0.8856038 1.0701383 0.8387455 0.9966035
000080 2a eb 7f 3f ce 61 6c 3f 15 f0 7a 3f 5a 38 8b 3f
       0.99968207 0.9233674 0.98022586 1.0876572
000090 00 00 80 3f b6 7a 6f 3f fb a0 77 3f 45 05 76 3f
       1.0 0.9354662 0.9673001 0.9610179
0000a0 25 be 63 3f d4 a6 8b 3f c8 89 6d 3f c7 6e 76 3f
       0.8896201 1.0910287 0.9278836 0.9626278
0000b0 80 7e 79 3f 94 fc 85 3f d5 72 6a 3f 93 33 79 3f
       0.9745865 1.0467706 0.9158147 0.9734432
0000c0 ad 9a 7d 3f 28 eb 8a 3f d8 bd 7c 3f 5e e6 6a 3f
       0.9906414 1.0853014 0.9872718 0.9175776
0000d0 82 33 76 3f 06 ae 89 3f e0 da 80 3f 83 bb 74 3f
       0.96172345 1.0756233 1.0066795 0.9559862
0000e0 70 c9 6e 3f b5 57 75 3f 15 ec 82 3f 8f 5a 7b 3f
       0.9327612 0.95836955 1.0228297 0.98185056
0000f0 30 22 7f 3f 5a c8 7b 3f 72 ea 71 3f 72 5b 81 3f
       0.9966154 0.9835259 0.9449836 1.0106032

batchn1.bias f4 [64]
000000 45 b0 47 bd 85 ad c8 bc 2c 3c d5 bd 8b 46 c7 bc
       -0.048752088 -0.024496803 -0.104118675 -0.02432563
000010 60 a7 b6 bc 7c 33 d9 bc 82 a0 86 bd 3d 62 22 3b
       -0.022296607 -0.026513807 -0.06573583 0.0024777793
000020 ed 42 01 3c 4c b2 73 bc 97 70 71 bd 1f ae 88 bd
       0.0078894915 -0.014874052 -0.058945265 -0.06673836
000030 3a aa bf bd 43 d0 9b bd 40 e0 33 bd 27 5a 21 bd
       -0.0935864 -0.07608082 -0.043915033 -0.039392617
000040 c6 5a c3 bc 1a 76 18 bc 7e e5 10 be 2e d2 49 bc
       -0.023846995 -0.009305501 -0.14150044 -0.012318177
000050 0a d0 a8 bc 22 dc c6 bd 3a f8 7b bd 0d b9 57 bd
       -0.020607013 -0.09709956 -0.061516024 -0.052666713
000060 17 21 0a bd a0 ff a4 bd 0a 94 b3 bc de e3 25 bd
       -0.033722963 -0.08056569 -0.021921176 -0.040500514
000070 3e 3f aa 3c 5b a2 5c bc be 87 f6 bc 80 4e 20 bd
       0.02078211 -0.013466443 -0.030094024 -0.039137363
000080 6b 39 9e bc d8 2b cd bb dd 64 c5 bc fb 5c f4 bc
       -0.019314488 -0.00626133 -0.024095947 -0.029829493
000090 86 1c ad bd fb 53 dc bc 64 98 2c bb 3f 93 1f bd
       -0.08452706 -0.026895514 -0.002633595 -0.038958784
0000a0 10 96 61 bd 09 89 0d be f3 04 35 3c c6 7b 8d bc
       -0.05507475 -0.13821806 0.011048543 -0.017270934
0000b0 dd f0 1a be f5 7f b8 3c c9 f0 1d 3b 3b 56 2c bd
       -0.15130945 0.022521952 0.0024099818 -0.042074423
0000c0 02 eb bb 3a 91 7f 9b 3b f6 02 70 3c c0 df 98 bc
       0.0014337006 0.0047454317 0.014649143 -0.01866138
0000d0 95 69 5a 3d dd 53 90 be c3 00 05 be a9 9d 8e 3d
       0.053323347 -0.28188983 -0.12988572 0.06963665
0000e0 89 d2 ca 3b 91 78 82 bb 65 f7 33 be c2 78 b2 3a
       0.0061896485 -0.003981658 -0.17574842 0.0013616311
0000f0 12 24 12 bd 0b 61 45 be f8 67 a0 bd 71 15 1d be
       -0.03567893 -0.192753 -0.078323305 -0.1534021

batchn1.running_mean f4 [64]
000000 60 b7 92 42 11 9b 19 42 af b7 66 3e e2 09 ea 3d
       73.358154 38.401432 0.22531007 0.11427666
000010 8c 57 65 40 18 76 2e 40 4b df 83 42 f2 c5 cc 40
       3.5834684 2.7259579 65.93612 6.3991632
000020 fb b1 af 41 20 33 7e 41 4c e3 3d 41 84 e5 f4 42
       21.961905 15.887482 11.867992 122.44827
000030 0e c7 58 3e 00 00 00 00 bc d0 a0 40 0a bf 6a 41
       0.21169683 0.0 5.0254803 14.67164
000040 1b 93 77 42 0f 04 3b 3f 5e e5 c8 41 22 2b bd 42
       61.893658 0.7305307 25.111996 94.58424
000050 8c a8 9b 3f 6e ae 1a 41 4b 7c a9 32 00 00 00 00
       1.2160811 9.667585 1.9730711e-08 0.0
000060 a6 b5 0f 3f 6e f0 96 42 17 b5 2f 42 8d 98 97 41
       0.5613655 75.46959 43.926846 18.949488
000070 30 7e a7 3e d5 e5 f6 41 ea f3 ff 3c dd ea de 41
       0.3271346 30.862223 0.031244237 27.86468
000080 87 a4 b2 41 d0 a0 06 41 1a 56 5c 42 0e 3b 1b 41
       22.330336 8.414261 55.084084 9.701918
000090 00 00 00 00 ed 6d 1f 40 37 9c e9 42 64 6b a0 42
       0.0 2.4910843 116.80511 80.20975
0000a0 44 4f e4 3f c0 b3 1e 3d c5 1e a3 3f b0 f8 8d 41
       1.783669 0.03874564 1.2743765 17.74643
0000b0 78 42 b3 40 89 03 68 41 8f b5 9a 3f 86 aa 95 42
       5.601864 14.500863 1.2086657 74.83305
0000c0 0d 6e cd 39 11 d5 20 3e e7 85 80 32 fb fe b6 41
       0.0003918264 0.15706278 1.4962053e-08 22.874502
0000d0 04 00 00 00 ea d1 ca 39 bb 03 97 42 c9 f8 72 40
       6e-45 0.0003868484 75.507286 3.7964346
0000e0 cc 0e c9 3f c6 84 9b 42 71 18 bc 42 f0 02 92 41
       1.5707641 77.75932 94.04774 18.251434
0000f0 a3 14 58 42 d8 a5 3d 42 f0 4c 2d 42 f5 a1 87 42
       54.020153 47.411957 43.325134 67.81632

batchn1.running_var f4 [64]
000000 4c f0 52 45 2c af c9 44 d2 2e be 3f 0b af a9 3f
       3375.0186 1613.4741 1.4858038 1.3256544
000010 e4 84 5a 42 a4 e6 d1 43 e8 8a b3 45 01 1c e8 42
       54.629776 419.80188 5745.3633 116.054695
000020 4d 2f d4 44 a9 b7 69 44 93 d8 5e 43 74 51 ad 45
       1697.4781 934.8697 222.846 5546.1816
000030 bd 6b 6e 40 04 00 00 00 a7 57 fb 42 31 96 86 43
       3.7253258 6e-45 125.671196 269.17337
000040 a0 11 1f 45 85 b1 22 42 d2 fe 4e 44 84 f2 46 45
       2545.1016 40.67336 827.98157 3183.1572
000050 3c 0c 91 41 6e ad 45 44 a2 b0 25 34 04 00 00 00
       18.130974 790.70984 1.5431081e-07 6e-45
000060 ab 0a 13 42 6d 96 af 44 f9 a9 51 45 f5 e4 6a 44
       36.760418 1404.7008 3354.6233 939.57745
000070 cb 48 38 41 18 c1 ba 44 dc 0a 0b 3f bb d9 ad 44
       11.517772 1494.0342 0.54313445 1390.8041
000080 31 ce bc 44 c3 7e 80 43 e0 aa cd 44 ae d9 9b 43
       1510.4435 256.99033 1645.3398 311.70062
000090 04 00 00 00 d3 7e b8 41 27 ed db 45 71 61 ac 45
       6e-45 23.061926 7037.644 5516.18
0000a0 a6 e3 44 43 eb a6 f7 3c 77 c5 81 41 80 cd 94 44
       196.88925 0.03023096 16.221418 1190.4219
0000b0 87 7a f6 42 5d e9 c0 41 f1 d1 ac 41 e9 9d 96 45
       123.23931 24.113947 21.60251 4819.739
0000c0 8c ad 09 3b a3 cd 5c 3f 6a 8e be 33 37 fa f1 44
       0.0021007983 0.86251277 8.8734694e-08 1935.8192
0000d0 04 00 00 00 52 3d 39 39 66 dc b7 44 ce 46 02 42
       6e-45 0.00017665818 1470.8875 32.569145
0000e0 32 d8 23 42 b6 dc 69 45 8b 82 5d 44 c8 c1 8a 44
       40.96113 3741.7944 886.03973 1110.0557
0000f0 ca fb 66 44 6b 75 d9 43 52 92 90 44 c8 06 89 44
       923.9342 434.91733 1156.5725 1096.2119

batchn2.weight f4 [128]
000000 05 24 89 3f b6 39 87 3f 24 65 87 3f 27 50 8a 3f
       1.0714117 1.0564487 1.0577741 1.080571
000010 16 08 88 3f 09 85 87 3f 1e 12 87 3f c2 b4 85 3f
       1.0627468 1.0587474 1.0552404 1.0445788
000020 54 27 8a 3f 43 ba 87 3f 05 90 86 3f 1c 6c 86 3f
       1.0793252 1.0603718 1.0512701 1.0501742
000030 a6 34 81 3f 04 5d 91 3f 8c 15 86 3f 23 c4 87 3f
       1.0094192 1.1356511 1.0475326 1.0606731
000040 46 77 86 3f 7e 18 88 3f 37 56 87 3f b5 f4 84 3f
       1.0505149 1.0632474 1.0573186 1.0387179
000050 25 d9 87 3f 63 7a 81 3f 74 4c 83 3f 9f dc 8a 3f
       1.0613142 1.0115474 1.0257707 1.0848578
000060 d2 7c 8c 3f 3b cc 89 3f 50 dd 8c 3f c4 13 8a 3f
       1.0975592 1.0765451 1.1005039 1.0787282
000070 09 f2 8c 3f a5 1e 81 3f 68 73 8b 3f f9 5e 87 3f
       1.1011363 1.0087477 1.0894594 1.0575858
000080 da 2b 87 3f 6f af 86 3f 47 17 83 3f bd 8f 90 3f
       1.0560257 1.0522288 1.0241479 1.1293865
000090 74 e9 88 3f 6a 8a 85 3f ad 74 86 3f 99 e2 82 3f
       1.0696244 1.0432866 1.0504357 1.0225402
0000a0 02 54 89 3f 8a cd 88 3f 7a 46 87 3f 70 de 81 3f
       1.0728762 1.0687726 1.0568383 1.0146008
0000b0 c7 9f 8a 3f 6e 39 86 3f 90 48 86 3f 44 76 8a 3f
       1.083001 1.0486276 1.0490894 1.0817342
0000c0 0e 1e 86 3f c9 00 85 3f da 11 8b 3f 88 cc 88 3f
       1.0477922 1.0390865 1.0864823 1.0687418
0000d0 93 9d 8a 3f a0 cc 86 3f 45 d7 82 3f 5d 72 8c 3f
       1.0829338 1.0531197 1.0221945 1.0972401
0000e0 f2 50 89 3f f7 9a 85 3f 5e 1c 89 3f 45 3b 89 3f
       1.0727828 1.0437917 1.0711782 1.0721213
0000f0 3f 3f 8b 3f 83 50 86 3f d1 9b 87 3f 67 05 89 3f
       1.0878676 1.049332 1.0594426 1.0704774
000100 81 d1 87 3f 9d c8 85 3f 6f 16 86 3f 91 5e 89 3f
       1.061081 1.0451847 1.0475596 1.0731984
000110 c7 51 91 3f d9 ad 82 3f b4 16 88 3f 92 4b 84 3f
       1.1353081 1.0209304 1.0631928 1.0335562
000120 b7 20 8c 3f 5c 0c 85 3f b0 51 84 3f 52 af 8c 3f
       1.0947484 1.0394397 1.0337429 1.0991004
000130 e7 e8 8a 3f b7 9a 87 3f 9a 0b 8a 3f 44 f7 83 3f
       1.0852326 1.059409 1.078479 1.0309834
000140 65 01 8e 3f e4 4b 8e 3f b8 45 85 3f bb 4c 8b 3f
       1.1094176 1.111691 1.0411901 1.0882791
000150 91 2a 89 3f f7 27 85 3f b3 74 87 3f cd 25 87 3f
       1.0716115 1.0402821 1.0582489 1.0558411
000160 4a ee 85 3f 77 15 8b 3f 7f 4d 86 3f 19 2f 8a 3f
       1.0463345 1.0865926 1.04924 1.0795623
000170 84 8e 86 3f e9 d8 8a 3f ba d7 89 3f 78 3c 8a 3f
       1.0512242 1.0847446 1.076896 1.0799704
000180 b6 f1 8a 3f 51 d4 8c 3f d4 2c 86 3f 26 d5 89 3f
       1.0855014 1.1002294 1.048243 1.0768173
000190 b6 f7 86 3f 92 69 87 3f 7e 42 8b 3f 3b 72 8b 3f
       1.0544345 1.0579093 1.0879667 1.0894235
0001a0 e2 75 82 3f dc ef 8a 3f d9 6e 88 3f 55 54 86 3f
       1.0192225 1.0854449 1.0658828 1.0494486
0001b0 af 81 87 3f 4d 63 8a 3f ee 2e 83 3f 09 82 91 3f
       1.0586451 1.0811554 1.0248697 1.1367809
0001c0 6e 06 85 3f 14 e0 8a 3f ec 8d 87 3f a4 0a 88 3f
       1.0392587 1.0849633 1.0590186 1.0628247
0001d0 98 5e 87 3f 17 70 86 3f 18 48 8b 3f c4 8e 87 3f
       1.0575743 1.0502957 1.0881376 1.0590444
0001e0 54 52 8e 3f 2f a3 89 3f 5d 43 85 3f c4 5c 87 3f
       1.1118875 1.0752925 1.0411183 1.0575185
0001f0 00 e3 82 3f f0 20 89 3f 1d b5 84 3f 2f 2c 8c 3f
       1.0225525 1.0713177 1.0367771 1.0950984

batchn2.bias f4 [128]
000000 ee c4 ef bd 43 d5 d9 3c 82 39 bf bd 2d 60 98 bd
       -0.11707483 0.026590949 -0.093371406 -0.07440219
000010 07 df f5 39 de 77 9b bd 35 22 2f bd 17 62 52 bd
       0.0004689621 -0.07591222 -0.04275723 -0.051363077
000020 3c bc 77 bd f3 0d 71 3d 6d 60 bd bd ee de 8f bd
       -0.06048225 0.058851194 -0.092469074 -0.07024942
000030 8b 0c 4d bd 29 2e ca bd 19 29 d8 bd ab 88 cf bc
       -0.05006079 -0.098720856 -0.10554714 -0.025333723
000040 0c 12 ba bd f8 f1 89 bd 93 d5 be bd 31 ac af bd
       -0.090854734 -0.06735605 -0.0931808 -0.08577765
000050 af f4 a9 bd ee 9d 3b bd ef db bb bd 34 2d e0 3c
       -0.08298623 -0.04580491 -0.091728084 0.027365305
000060 5e 2c eb bd fc 45 88 bd a9 48 9c bd 2a cd 55 3d
       -0.11483072 -0.066539735 -0.07631046 0.052197613
000070 a6 b0 da 3d 08 48 5e bd 45 4b a7 bd 06 8e 1f bd
       0.10678224 -0.054267913 -0.081686534 -0.038953803
000080 d0 49 6f 3d cc a6 e9 3c ad 3d be bd e9 78 ca bd
       0.058420002 0.028521918 -0.092891075 -0.09886343
000090 47 70 c2 bd a9 67 86 bd c8 8a 18 3d 28 61 62 bd
       -0.094940715 -0.0656274 0.037241727 -0.055268437
0000a0 44 a7 b7 bc 5e 7c 2f bd d9 09 b5 bd 18 b4 e7 bd
       -0.022418626 -0.042843215 -0.08839769 -0.11313647
0000b0 a8 68 96 3d d5 bf 95 3c 9d a3 e7 bc 15 b8 74 bd
       0.0734418 0.01827995 -0.02827626 -0.059745867
0000c0 87 3e f2 bc 47 cc a3 bc e8 98 4f bd d7 09 8f bd
       -0.029570831 -0.019994868 -0.050682932 -0.06984299
0000d0 2b d3 e5 bd b0 87 9e bd 10 1a 12 3d 92 60 99 bd
       -0.11221918 -0.07740724 0.035669386 -0.074891225
0000e0 8b 44 ad 3d 8c d7 8c bd 58 dd 9b bd 21 e4 c1 bd
       0.08460339 -0.0687705 -0.07610577 -0.0946734
0000f0 3d b3 83 bc f9 8a 45 bd fc 32 98 bc 7a f0 a0 bd
       -0.016076678 -0.048228238 -0.018578999 -0.07858367
000100 43 21 0b 3d eb 72 89 bd 19 21 91 bd 1a 37 b0 bd
       0.033967268 -0.06711372 -0.07086391 -0.0860426
000110 78 96 e7 bd 1b 1a ed bc 08 db a6 bd 27 3a 61 bd
       -0.113079965 -0.028943112 -0.08147246 -0.0549871
000120 e2 cb b1 bd 5f 72 ab bb 15 a3 e9 bd c1 c2 c1 bd
       -0.08681466 -0.00523214 -0.114080586 -0.094609745
000130 4e 09 2f bd b9 90 be bd 07 7b 91 bd 3f 6d 7b 3d
       -0.042733483 -0.093049474 -0.07103544 0.061383482
000140 84 f6 3b bd 9f 24 86 bd 4d 37 77 bd 32 f2 8c 3d
       -0.045889392 -0.06549954 -0.060355473 0.068821326
000150 73 92 78 3d 5b 49 81 bc 63 67 87 bd 44 52 5f bb
       0.06068654 -0.015782049 -0.06611516 -0.0034076134
000160 bc 45 55 bd 6d 9a 8b bd c5 06 4a 3d 0b 1b d0 bd
       -0.052068457 -0.06816564 0.049322862 -0.10161408
000170 69 cf c0 bd f6 51 ec 3c 39 78 e0 bd 8e 8f 72 bd
       -0.0941456 0.028847676 -0.10960431 -0.059218936
000180 7e 71 30 bd f5 12 d4 bc 1d 34 c3 3c 9f 97 a9 bd
       -0.043076985 -0.025887946 0.02382856 -0.082808726
000190 f1 7e a4 bd 82 49 dd bc f3 c7 92 bd a2 fc a8 bd
       -0.08032025 -0.02701259 -0.071670435 -0.08251311
0001a0 4f 6a b1 bd ed de 99 bd 02 fe 04 3d 7f 3c ba bd
       -0.08662855 -0.07513223 0.032468803 -0.0909357
0001b0 85 07 43 bd a8 2b 73 bd 09 d4 20 bd 86 c3 b0 bd
       -0.047614593 -0.059367806 -0.039264712 -0.08631043
0001c0 32 14 91 bd ec 73 c8 3c 99 a1 4f 3c 4c 12 5f 3d
       -0.0708393 0.024469338 0.012672805 0.05446081
0001d0 bf e9 83 bd 78 49 b7 bd 69 03 45 bd 04 e7 a1 bd
       -0.06441068 -0.0894956 -0.048098955 -0.07905391
0001e0 ea 58 c3 3d 1c 5d 79 bd 58 99 cc 3c 04 15 c9 bd
       0.095384434 -0.06087981 0.024975464 -0.098184615
0001f0 92 4c 67 bd b2 06 93 bb 69 8b 6f bd 2d ea b2 bd
       -0.056469508 -0.004486882 -0.05848256 -0.08736072
